{"format": "layers-model", "generatedBy": "keras v2.15.0", "convertedBy": "TensorFlow.js Converter v4.14.0", "modelTopology": {"keras_version": "2.15.0", "backend": "tensorflow", "model_config": {"class_name": "Functional", "config": {"name": "model_8", "trainable": true, "layers": [{"class_name": "InputLayer", "config": {"batch_input_shape": [null, 150, 150, 3], "dtype": "float32", "sparse": false, "ragged": false, "name": "input_13"}, "name": "input_13", "inbound_nodes": []}, {"class_name": "Conv2D", "config": {"name": "conv2d_376", "trainable": false, "dtype": "float32", "filters": 32, "kernel_size": [3, 3], "strides": [2, 2], "padding": "valid", "data_format": "channels_last", "dilation_rate": [1, 1], "groups": 1, "activation": "linear", "use_bias": false, "kernel_initializer": {"module": "keras.initializers", "class_name": "GlorotUniform", "config": {"seed": null}, "registered_name": null}, "bias_initializer": {"module": "keras.initializers", "class_name": "Zeros", "config": {}, "registered_name": null}, "kernel_regularizer": null, "bias_regularizer": null, "activity_regularizer": null, "kernel_constraint": null, "bias_constraint": null}, "name": "conv2d_376", "inbound_nodes": [[["input_13", 0, 0, {}]]]}, {"class_name": "BatchNormalization", "config": {"name": "batch_normalization_376", "trainable": false, "dtype": "float32", "axis": [3], "momentum": 0.99, "epsilon": 0.001, "center": true, "scale": false, "beta_initializer": {"module": "keras.initializers", "class_name": "Zeros", "config": {}, "registered_name": null}, "gamma_initializer": {"module": "keras.initializers", "class_name": "Ones", "config": {}, "registered_name": null}, "moving_mean_initializer": {"module": "keras.initializers", "class_name": "Zeros", "config": {}, "registered_name": null}, "moving_variance_initializer": {"module": "keras.initializers", "class_name": "Ones", "config": {}, "registered_name": null}, "beta_regularizer": null, "gamma_regularizer": null, "beta_constraint": null, "gamma_constraint": null}, "name": "batch_normalization_376", "inbound_nodes": [[["conv2d_376", 0, 0, {}]]]}, {"class_name": "Activation", "config": {"name": "activation_376", "trainable": false, "dtype": "float32", "activation": "relu"}, "name": "activation_376", "inbound_nodes": [[["batch_normalization_376", 0, 0, {}]]]}, {"class_name": "Conv2D", "config": {"name": "conv2d_377", "trainable": false, "dtype": "float32", "filters": 32, "kernel_size": [3, 3], "strides": [1, 1], "padding": "valid", "data_format": "channels_last", "dilation_rate": [1, 1], "groups": 1, "activation": "linear", "use_bias": false, "kernel_initializer": {"module": "keras.initializers", "class_name": "GlorotUniform", "config": {"seed": null}, "registered_name": null}, "bias_initializer": {"module": "keras.initializers", "class_name": "Zeros", "config": {}, "registered_name": null}, "kernel_regularizer": null, "bias_regularizer": null, "activity_regularizer": null, "kernel_constraint": null, "bias_constraint": null}, "name": "conv2d_377", "inbound_nodes": [[["activation_376", 0, 0, {}]]]}, {"class_name": "BatchNormalization", "config": {"name": "batch_normalization_377", "trainable": false, "dtype": "float32", "axis": [3], "momentum": 0.99, "epsilon": 0.001, "center": true, "scale": false, "beta_initializer": {"module": "keras.initializers", "class_name": "Zeros", "config": {}, "registered_name": null}, "gamma_initializer": {"module": "keras.initializers", "class_name": "Ones", "config": {}, "registered_name": null}, "moving_mean_initializer": {"module": "keras.initializers", "class_name": "Zeros", "config": {}, "registered_name": null}, "moving_variance_initializer": {"module": "keras.initializers", "class_name": "Ones", "config": {}, "registered_name": null}, "beta_regularizer": null, "gamma_regularizer": null, "beta_constraint": null, "gamma_constraint": null}, "name": "batch_normalization_377", "inbound_nodes": [[["conv2d_377", 0, 0, {}]]]}, {"class_name": "Activation", "config": {"name": "activation_377", "trainable": false, "dtype": "float32", "activation": "relu"}, "name": "activation_377", "inbound_nodes": [[["batch_normalization_377", 0, 0, {}]]]}, {"class_name": "Conv2D", "config": {"name": "conv2d_378", "trainable": false, "dtype": "float32", "filters": 64, "kernel_size": [3, 3], "strides": [1, 1], "padding": "same", "data_format": "channels_last", "dilation_rate": [1, 1], "groups": 1, "activation": "linear", "use_bias": false, "kernel_initializer": {"module": "keras.initializers", "class_name": "GlorotUniform", "config": {"seed": null}, "registered_name": null}, "bias_initializer": {"module": "keras.initializers", "class_name": "Zeros", "config": {}, "registered_name": null}, "kernel_regularizer": null, "bias_regularizer": null, "activity_regularizer": null, "kernel_constraint": null, "bias_constraint": null}, "name": "conv2d_378", "inbound_nodes": [[["activation_377", 0, 0, {}]]]}, {"class_name": "BatchNormalization", "config": {"name": "batch_normalization_378", "trainable": false, "dtype": "float32", "axis": [3], "momentum": 0.99, "epsilon": 0.001, "center": true, "scale": false, "beta_initializer": {"module": "keras.initializers", "class_name": "Zeros", "config": {}, "registered_name": null}, "gamma_initializer": {"module": "keras.initializers", "class_name": "Ones", "config": {}, "registered_name": null}, "moving_mean_initializer": {"module": "keras.initializers", "class_name": "Zeros", "config": {}, "registered_name": null}, "moving_variance_initializer": {"module": "keras.initializers", "class_name": "Ones", "config": {}, "registered_name": null}, "beta_regularizer": null, "gamma_regularizer": null, "beta_constraint": null, "gamma_constraint": null}, "name": "batch_normalization_378", "inbound_nodes": [[["conv2d_378", 0, 0, {}]]]}, {"class_name": "Activation", "config": {"name": "activation_378", "trainable": false, "dtype": "float32", "activation": "relu"}, "name": "activation_378", "inbound_nodes": [[["batch_normalization_378", 0, 0, {}]]]}, {"class_name": "MaxPooling2D", "config": {"name": "max_pooling2d_16", "trainable": false, "dtype": "float32", "pool_size": [3, 3], "padding": "valid", "strides": [2, 2], "data_format": "channels_last"}, "name": "max_pooling2d_16", "inbound_nodes": [[["activation_378", 0, 0, {}]]]}, {"class_name": "Conv2D", "config": {"name": "conv2d_379", "trainable": false, "dtype": "float32", "filters": 80, "kernel_size": [1, 1], "strides": [1, 1], "padding": "valid", "data_format": "channels_last", "dilation_rate": [1, 1], "groups": 1, "activation": "linear", "use_bias": false, "kernel_initializer": {"module": "keras.initializers", "class_name": "GlorotUniform", "config": {"seed": null}, "registered_name": null}, "bias_initializer": {"module": "keras.initializers", "class_name": "Zeros", "config": {}, "registered_name": null}, "kernel_regularizer": null, "bias_regularizer": null, "activity_regularizer": null, "kernel_constraint": null, "bias_constraint": null}, "name": "conv2d_379", "inbound_nodes": [[["max_pooling2d_16", 0, 0, {}]]]}, {"class_name": "BatchNormalization", "config": {"name": "batch_normalization_379", "trainable": false, "dtype": "float32", "axis": [3], "momentum": 0.99, "epsilon": 0.001, "center": true, "scale": false, "beta_initializer": {"module": "keras.initializers", "class_name": "Zeros", "config": {}, "registered_name": null}, "gamma_initializer": {"module": "keras.initializers", "class_name": "Ones", "config": {}, "registered_name": null}, "moving_mean_initializer": {"module": "keras.initializers", "class_name": "Zeros", "config": {}, "registered_name": null}, "moving_variance_initializer": {"module": "keras.initializers", "class_name": "Ones", "config": {}, "registered_name": null}, "beta_regularizer": null, "gamma_regularizer": null, "beta_constraint": null, "gamma_constraint": null}, "name": "batch_normalization_379", "inbound_nodes": [[["conv2d_379", 0, 0, {}]]]}, {"class_name": "Activation", "config": {"name": "activation_379", "trainable": false, "dtype": "float32", "activation": "relu"}, "name": "activation_379", "inbound_nodes": [[["batch_normalization_379", 0, 0, {}]]]}, {"class_name": "Conv2D", "config": {"name": "conv2d_380", "trainable": false, "dtype": "float32", "filters": 192, "kernel_size": [3, 3], "strides": [1, 1], "padding": "valid", "data_format": "channels_last", "dilation_rate": [1, 1], "groups": 1, "activation": "linear", "use_bias": false, "kernel_initializer": {"module": "keras.initializers", "class_name": "GlorotUniform", "config": {"seed": null}, "registered_name": null}, "bias_initializer": {"module": "keras.initializers", "class_name": "Zeros", "config": {}, "registered_name": null}, "kernel_regularizer": null, "bias_regularizer": null, "activity_regularizer": null, "kernel_constraint": null, "bias_constraint": null}, "name": "conv2d_380", "inbound_nodes": [[["activation_379", 0, 0, {}]]]}, {"class_name": "BatchNormalization", "config": {"name": "batch_normalization_380", "trainable": false, "dtype": "float32", "axis": [3], "momentum": 0.99, "epsilon": 0.001, "center": true, "scale": false, "beta_initializer": {"module": "keras.initializers", "class_name": "Zeros", "config": {}, "registered_name": null}, "gamma_initializer": {"module": "keras.initializers", "class_name": "Ones", "config": {}, "registered_name": null}, "moving_mean_initializer": {"module": "keras.initializers", "class_name": "Zeros", "config": {}, "registered_name": null}, "moving_variance_initializer": {"module": "keras.initializers", "class_name": "Ones", "config": {}, "registered_name": null}, "beta_regularizer": null, "gamma_regularizer": null, "beta_constraint": null, "gamma_constraint": null}, "name": "batch_normalization_380", "inbound_nodes": [[["conv2d_380", 0, 0, {}]]]}, {"class_name": "Activation", "config": {"name": "activation_380", "trainable": false, "dtype": "float32", "activation": "relu"}, "name": "activation_380", "inbound_nodes": [[["batch_normalization_380", 0, 0, {}]]]}, {"class_name": "MaxPooling2D", "config": {"name": "max_pooling2d_17", "trainable": false, "dtype": "float32", "pool_size": [3, 3], "padding": "valid", "strides": [2, 2], "data_format": "channels_last"}, "name": "max_pooling2d_17", "inbound_nodes": [[["activation_380", 0, 0, {}]]]}, {"class_name": "Conv2D", "config": {"name": "conv2d_384", "trainable": false, "dtype": "float32", "filters": 64, "kernel_size": [1, 1], "strides": [1, 1], "padding": "same", "data_format": "channels_last", "dilation_rate": [1, 1], "groups": 1, "activation": "linear", "use_bias": false, "kernel_initializer": {"module": "keras.initializers", "class_name": "GlorotUniform", "config": {"seed": null}, "registered_name": null}, "bias_initializer": {"module": "keras.initializers", "class_name": "Zeros", "config": {}, "registered_name": null}, "kernel_regularizer": null, "bias_regularizer": null, "activity_regularizer": null, "kernel_constraint": null, "bias_constraint": null}, "name": "conv2d_384", "inbound_nodes": [[["max_pooling2d_17", 0, 0, {}]]]}, {"class_name": "BatchNormalization", "config": {"name": "batch_normalization_384", "trainable": false, "dtype": "float32", "axis": [3], "momentum": 0.99, "epsilon": 0.001, "center": true, "scale": false, "beta_initializer": {"module": "keras.initializers", "class_name": "Zeros", "config": {}, "registered_name": null}, "gamma_initializer": {"module": "keras.initializers", "class_name": "Ones", "config": {}, "registered_name": null}, "moving_mean_initializer": {"module": "keras.initializers", "class_name": "Zeros", "config": {}, "registered_name": null}, "moving_variance_initializer": {"module": "keras.initializers", "class_name": "Ones", "config": {}, "registered_name": null}, "beta_regularizer": null, "gamma_regularizer": null, "beta_constraint": null, "gamma_constraint": null}, "name": "batch_normalization_384", "inbound_nodes": [[["conv2d_384", 0, 0, {}]]]}, {"class_name": "Activation", "config": {"name": "activation_384", "trainable": false, "dtype": "float32", "activation": "relu"}, "name": "activation_384", "inbound_nodes": [[["batch_normalization_384", 0, 0, {}]]]}, {"class_name": "Conv2D", "config": {"name": "conv2d_382", "trainable": false, "dtype": "float32", "filters": 48, "kernel_size": [1, 1], "strides": [1, 1], "padding": "same", "data_format": "channels_last", "dilation_rate": [1, 1], "groups": 1, "activation": "linear", "use_bias": false, "kernel_initializer": {"module": "keras.initializers", "class_name": "GlorotUniform", "config": {"seed": null}, "registered_name": null}, "bias_initializer": {"module": "keras.initializers", "class_name": "Zeros", "config": {}, "registered_name": null}, "kernel_regularizer": null, "bias_regularizer": null, "activity_regularizer": null, "kernel_constraint": null, "bias_constraint": null}, "name": "conv2d_382", "inbound_nodes": [[["max_pooling2d_17", 0, 0, {}]]]}, {"class_name": "Conv2D", "config": {"name": "conv2d_385", "trainable": false, "dtype": "float32", "filters": 96, "kernel_size": [3, 3], "strides": [1, 1], "padding": "same", "data_format": "channels_last", "dilation_rate": [1, 1], "groups": 1, "activation": "linear", "use_bias": false, "kernel_initializer": {"module": "keras.initializers", "class_name": "GlorotUniform", "config": {"seed": null}, "registered_name": null}, "bias_initializer": {"module": "keras.initializers", "class_name": "Zeros", "config": {}, "registered_name": null}, "kernel_regularizer": null, "bias_regularizer": null, "activity_regularizer": null, "kernel_constraint": null, "bias_constraint": null}, "name": "conv2d_385", "inbound_nodes": [[["activation_384", 0, 0, {}]]]}, {"class_name": "BatchNormalization", "config": {"name": "batch_normalization_382", "trainable": false, "dtype": "float32", "axis": [3], "momentum": 0.99, "epsilon": 0.001, "center": true, "scale": false, "beta_initializer": {"module": "keras.initializers", "class_name": "Zeros", "config": {}, "registered_name": null}, "gamma_initializer": {"module": "keras.initializers", "class_name": "Ones", "config": {}, "registered_name": null}, "moving_mean_initializer": {"module": "keras.initializers", "class_name": "Zeros", "config": {}, "registered_name": null}, "moving_variance_initializer": {"module": "keras.initializers", "class_name": "Ones", "config": {}, "registered_name": null}, "beta_regularizer": null, "gamma_regularizer": null, "beta_constraint": null, "gamma_constraint": null}, "name": "batch_normalization_382", "inbound_nodes": [[["conv2d_382", 0, 0, {}]]]}, {"class_name": "BatchNormalization", "config": {"name": "batch_normalization_385", "trainable": false, "dtype": "float32", "axis": [3], "momentum": 0.99, "epsilon": 0.001, "center": true, "scale": false, "beta_initializer": {"module": "keras.initializers", "class_name": "Zeros", "config": {}, "registered_name": null}, "gamma_initializer": {"module": "keras.initializers", "class_name": "Ones", "config": {}, "registered_name": null}, "moving_mean_initializer": {"module": "keras.initializers", "class_name": "Zeros", "config": {}, "registered_name": null}, "moving_variance_initializer": {"module": "keras.initializers", "class_name": "Ones", "config": {}, "registered_name": null}, "beta_regularizer": null, "gamma_regularizer": null, "beta_constraint": null, "gamma_constraint": null}, "name": "batch_normalization_385", "inbound_nodes": [[["conv2d_385", 0, 0, {}]]]}, {"class_name": "Activation", "config": {"name": "activation_382", "trainable": false, "dtype": "float32", "activation": "relu"}, "name": "activation_382", "inbound_nodes": [[["batch_normalization_382", 0, 0, {}]]]}, {"class_name": "Activation", "config": {"name": "activation_385", "trainable": false, "dtype": "float32", "activation": "relu"}, "name": "activation_385", "inbound_nodes": [[["batch_normalization_385", 0, 0, {}]]]}, {"class_name": "AveragePooling2D", "config": {"name": "average_pooling2d_36", "trainable": false, "dtype": "float32", "pool_size": [3, 3], "padding": "same", "strides": [1, 1], "data_format": "channels_last"}, "name": "average_pooling2d_36", "inbound_nodes": [[["max_pooling2d_17", 0, 0, {}]]]}, {"class_name": "Conv2D", "config": {"name": "conv2d_381", "trainable": false, "dtype": "float32", "filters": 64, "kernel_size": [1, 1], "strides": [1, 1], "padding": "same", "data_format": "channels_last", "dilation_rate": [1, 1], "groups": 1, "activation": "linear", "use_bias": false, "kernel_initializer": {"module": "keras.initializers", "class_name": "GlorotUniform", "config": {"seed": null}, "registered_name": null}, "bias_initializer": {"module": "keras.initializers", "class_name": "Zeros", "config": {}, "registered_name": null}, "kernel_regularizer": null, "bias_regularizer": null, "activity_regularizer": null, "kernel_constraint": null, "bias_constraint": null}, "name": "conv2d_381", "inbound_nodes": [[["max_pooling2d_17", 0, 0, {}]]]}, {"class_name": "Conv2D", "config": {"name": "conv2d_383", "trainable": false, "dtype": "float32", "filters": 64, "kernel_size": [5, 5], "strides": [1, 1], "padding": "same", "data_format": "channels_last", "dilation_rate": [1, 1], "groups": 1, "activation": "linear", "use_bias": false, "kernel_initializer": {"module": "keras.initializers", "class_name": "GlorotUniform", "config": {"seed": null}, "registered_name": null}, "bias_initializer": {"module": "keras.initializers", "class_name": "Zeros", "config": {}, "registered_name": null}, "kernel_regularizer": null, "bias_regularizer": null, "activity_regularizer": null, "kernel_constraint": null, "bias_constraint": null}, "name": "conv2d_383", "inbound_nodes": [[["activation_382", 0, 0, {}]]]}, {"class_name": "Conv2D", "config": {"name": "conv2d_386", "trainable": false, "dtype": "float32", "filters": 96, "kernel_size": [3, 3], "strides": [1, 1], "padding": "same", "data_format": "channels_last", "dilation_rate": [1, 1], "groups": 1, "activation": "linear", "use_bias": false, "kernel_initializer": {"module": "keras.initializers", "class_name": "GlorotUniform", "config": {"seed": null}, "registered_name": null}, "bias_initializer": {"module": "keras.initializers", "class_name": "Zeros", "config": {}, "registered_name": null}, "kernel_regularizer": null, "bias_regularizer": null, "activity_regularizer": null, "kernel_constraint": null, "bias_constraint": null}, "name": "conv2d_386", "inbound_nodes": [[["activation_385", 0, 0, {}]]]}, {"class_name": "Conv2D", "config": {"name": "conv2d_387", "trainable": false, "dtype": "float32", "filters": 32, "kernel_size": [1, 1], "strides": [1, 1], "padding": "same", "data_format": "channels_last", "dilation_rate": [1, 1], "groups": 1, "activation": "linear", "use_bias": false, "kernel_initializer": {"module": "keras.initializers", "class_name": "GlorotUniform", "config": {"seed": null}, "registered_name": null}, "bias_initializer": {"module": "keras.initializers", "class_name": "Zeros", "config": {}, "registered_name": null}, "kernel_regularizer": null, "bias_regularizer": null, "activity_regularizer": null, "kernel_constraint": null, "bias_constraint": null}, "name": "conv2d_387", "inbound_nodes": [[["average_pooling2d_36", 0, 0, {}]]]}, {"class_name": "BatchNormalization", "config": {"name": "batch_normalization_381", "trainable": false, "dtype": "float32", "axis": [3], "momentum": 0.99, "epsilon": 0.001, "center": true, "scale": false, "beta_initializer": {"module": "keras.initializers", "class_name": "Zeros", "config": {}, "registered_name": null}, "gamma_initializer": {"module": "keras.initializers", "class_name": "Ones", "config": {}, "registered_name": null}, "moving_mean_initializer": {"module": "keras.initializers", "class_name": "Zeros", "config": {}, "registered_name": null}, "moving_variance_initializer": {"module": "keras.initializers", "class_name": "Ones", "config": {}, "registered_name": null}, "beta_regularizer": null, "gamma_regularizer": null, "beta_constraint": null, "gamma_constraint": null}, "name": "batch_normalization_381", "inbound_nodes": [[["conv2d_381", 0, 0, {}]]]}, {"class_name": "BatchNormalization", "config": {"name": "batch_normalization_383", "trainable": false, "dtype": "float32", "axis": [3], "momentum": 0.99, "epsilon": 0.001, "center": true, "scale": false, "beta_initializer": {"module": "keras.initializers", "class_name": "Zeros", "config": {}, "registered_name": null}, "gamma_initializer": {"module": "keras.initializers", "class_name": "Ones", "config": {}, "registered_name": null}, "moving_mean_initializer": {"module": "keras.initializers", "class_name": "Zeros", "config": {}, "registered_name": null}, "moving_variance_initializer": {"module": "keras.initializers", "class_name": "Ones", "config": {}, "registered_name": null}, "beta_regularizer": null, "gamma_regularizer": null, "beta_constraint": null, "gamma_constraint": null}, "name": "batch_normalization_383", "inbound_nodes": [[["conv2d_383", 0, 0, {}]]]}, {"class_name": "BatchNormalization", "config": {"name": "batch_normalization_386", "trainable": false, "dtype": "float32", "axis": [3], "momentum": 0.99, "epsilon": 0.001, "center": true, "scale": false, "beta_initializer": {"module": "keras.initializers", "class_name": "Zeros", "config": {}, "registered_name": null}, "gamma_initializer": {"module": "keras.initializers", "class_name": "Ones", "config": {}, "registered_name": null}, "moving_mean_initializer": {"module": "keras.initializers", "class_name": "Zeros", "config": {}, "registered_name": null}, "moving_variance_initializer": {"module": "keras.initializers", "class_name": "Ones", "config": {}, "registered_name": null}, "beta_regularizer": null, "gamma_regularizer": null, "beta_constraint": null, "gamma_constraint": null}, "name": "batch_normalization_386", "inbound_nodes": [[["conv2d_386", 0, 0, {}]]]}, {"class_name": "BatchNormalization", "config": {"name": "batch_normalization_387", "trainable": false, "dtype": "float32", "axis": [3], "momentum": 0.99, "epsilon": 0.001, "center": true, "scale": false, "beta_initializer": {"module": "keras.initializers", "class_name": "Zeros", "config": {}, "registered_name": null}, "gamma_initializer": {"module": "keras.initializers", "class_name": "Ones", "config": {}, "registered_name": null}, "moving_mean_initializer": {"module": "keras.initializers", "class_name": "Zeros", "config": {}, "registered_name": null}, "moving_variance_initializer": {"module": "keras.initializers", "class_name": "Ones", "config": {}, "registered_name": null}, "beta_regularizer": null, "gamma_regularizer": null, "beta_constraint": null, "gamma_constraint": null}, "name": "batch_normalization_387", "inbound_nodes": [[["conv2d_387", 0, 0, {}]]]}, {"class_name": "Activation", "config": {"name": "activation_381", "trainable": false, "dtype": "float32", "activation": "relu"}, "name": "activation_381", "inbound_nodes": [[["batch_normalization_381", 0, 0, {}]]]}, {"class_name": "Activation", "config": {"name": "activation_383", "trainable": false, "dtype": "float32", "activation": "relu"}, "name": "activation_383", "inbound_nodes": [[["batch_normalization_383", 0, 0, {}]]]}, {"class_name": "Activation", "config": {"name": "activation_386", "trainable": false, "dtype": "float32", "activation": "relu"}, "name": "activation_386", "inbound_nodes": [[["batch_normalization_386", 0, 0, {}]]]}, {"class_name": "Activation", "config": {"name": "activation_387", "trainable": false, "dtype": "float32", "activation": "relu"}, "name": "activation_387", "inbound_nodes": [[["batch_normalization_387", 0, 0, {}]]]}, {"class_name": "Concatenate", "config": {"name": "mixed0", "trainable": false, "dtype": "float32", "axis": 3}, "name": "mixed0", "inbound_nodes": [[["activation_381", 0, 0, {}], ["activation_383", 0, 0, {}], ["activation_386", 0, 0, {}], ["activation_387", 0, 0, {}]]]}, {"class_name": "Conv2D", "config": {"name": "conv2d_391", "trainable": false, "dtype": "float32", "filters": 64, "kernel_size": [1, 1], "strides": [1, 1], "padding": "same", "data_format": "channels_last", "dilation_rate": [1, 1], "groups": 1, "activation": "linear", "use_bias": false, "kernel_initializer": {"module": "keras.initializers", "class_name": "GlorotUniform", "config": {"seed": null}, "registered_name": null}, "bias_initializer": {"module": "keras.initializers", "class_name": "Zeros", "config": {}, "registered_name": null}, "kernel_regularizer": null, "bias_regularizer": null, "activity_regularizer": null, "kernel_constraint": null, "bias_constraint": null}, "name": "conv2d_391", "inbound_nodes": [[["mixed0", 0, 0, {}]]]}, {"class_name": "BatchNormalization", "config": {"name": "batch_normalization_391", "trainable": false, "dtype": "float32", "axis": [3], "momentum": 0.99, "epsilon": 0.001, "center": true, "scale": false, "beta_initializer": {"module": "keras.initializers", "class_name": "Zeros", "config": {}, "registered_name": null}, "gamma_initializer": {"module": "keras.initializers", "class_name": "Ones", "config": {}, "registered_name": null}, "moving_mean_initializer": {"module": "keras.initializers", "class_name": "Zeros", "config": {}, "registered_name": null}, "moving_variance_initializer": {"module": "keras.initializers", "class_name": "Ones", "config": {}, "registered_name": null}, "beta_regularizer": null, "gamma_regularizer": null, "beta_constraint": null, "gamma_constraint": null}, "name": "batch_normalization_391", "inbound_nodes": [[["conv2d_391", 0, 0, {}]]]}, {"class_name": "Activation", "config": {"name": "activation_391", "trainable": false, "dtype": "float32", "activation": "relu"}, "name": "activation_391", "inbound_nodes": [[["batch_normalization_391", 0, 0, {}]]]}, {"class_name": "Conv2D", "config": {"name": "conv2d_389", "trainable": false, "dtype": "float32", "filters": 48, "kernel_size": [1, 1], "strides": [1, 1], "padding": "same", "data_format": "channels_last", "dilation_rate": [1, 1], "groups": 1, "activation": "linear", "use_bias": false, "kernel_initializer": {"module": "keras.initializers", "class_name": "GlorotUniform", "config": {"seed": null}, "registered_name": null}, "bias_initializer": {"module": "keras.initializers", "class_name": "Zeros", "config": {}, "registered_name": null}, "kernel_regularizer": null, "bias_regularizer": null, "activity_regularizer": null, "kernel_constraint": null, "bias_constraint": null}, "name": "conv2d_389", "inbound_nodes": [[["mixed0", 0, 0, {}]]]}, {"class_name": "Conv2D", "config": {"name": "conv2d_392", "trainable": false, "dtype": "float32", "filters": 96, "kernel_size": [3, 3], "strides": [1, 1], "padding": "same", "data_format": "channels_last", "dilation_rate": [1, 1], "groups": 1, "activation": "linear", "use_bias": false, "kernel_initializer": {"module": "keras.initializers", "class_name": "GlorotUniform", "config": {"seed": null}, "registered_name": null}, "bias_initializer": {"module": "keras.initializers", "class_name": "Zeros", "config": {}, "registered_name": null}, "kernel_regularizer": null, "bias_regularizer": null, "activity_regularizer": null, "kernel_constraint": null, "bias_constraint": null}, "name": "conv2d_392", "inbound_nodes": [[["activation_391", 0, 0, {}]]]}, {"class_name": "BatchNormalization", "config": {"name": "batch_normalization_389", "trainable": false, "dtype": "float32", "axis": [3], "momentum": 0.99, "epsilon": 0.001, "center": true, "scale": false, "beta_initializer": {"module": "keras.initializers", "class_name": "Zeros", "config": {}, "registered_name": null}, "gamma_initializer": {"module": "keras.initializers", "class_name": "Ones", "config": {}, "registered_name": null}, "moving_mean_initializer": {"module": "keras.initializers", "class_name": "Zeros", "config": {}, "registered_name": null}, "moving_variance_initializer": {"module": "keras.initializers", "class_name": "Ones", "config": {}, "registered_name": null}, "beta_regularizer": null, "gamma_regularizer": null, "beta_constraint": null, "gamma_constraint": null}, "name": "batch_normalization_389", "inbound_nodes": [[["conv2d_389", 0, 0, {}]]]}, {"class_name": "BatchNormalization", "config": {"name": "batch_normalization_392", "trainable": false, "dtype": "float32", "axis": [3], "momentum": 0.99, "epsilon": 0.001, "center": true, "scale": false, "beta_initializer": {"module": "keras.initializers", "class_name": "Zeros", "config": {}, "registered_name": null}, "gamma_initializer": {"module": "keras.initializers", "class_name": "Ones", "config": {}, "registered_name": null}, "moving_mean_initializer": {"module": "keras.initializers", "class_name": "Zeros", "config": {}, "registered_name": null}, "moving_variance_initializer": {"module": "keras.initializers", "class_name": "Ones", "config": {}, "registered_name": null}, "beta_regularizer": null, "gamma_regularizer": null, "beta_constraint": null, "gamma_constraint": null}, "name": "batch_normalization_392", "inbound_nodes": [[["conv2d_392", 0, 0, {}]]]}, {"class_name": "Activation", "config": {"name": "activation_389", "trainable": false, "dtype": "float32", "activation": "relu"}, "name": "activation_389", "inbound_nodes": [[["batch_normalization_389", 0, 0, {}]]]}, {"class_name": "Activation", "config": {"name": "activation_392", "trainable": false, "dtype": "float32", "activation": "relu"}, "name": "activation_392", "inbound_nodes": [[["batch_normalization_392", 0, 0, {}]]]}, {"class_name": "AveragePooling2D", "config": {"name": "average_pooling2d_37", "trainable": false, "dtype": "float32", "pool_size": [3, 3], "padding": "same", "strides": [1, 1], "data_format": "channels_last"}, "name": "average_pooling2d_37", "inbound_nodes": [[["mixed0", 0, 0, {}]]]}, {"class_name": "Conv2D", "config": {"name": "conv2d_388", "trainable": false, "dtype": "float32", "filters": 64, "kernel_size": [1, 1], "strides": [1, 1], "padding": "same", "data_format": "channels_last", "dilation_rate": [1, 1], "groups": 1, "activation": "linear", "use_bias": false, "kernel_initializer": {"module": "keras.initializers", "class_name": "GlorotUniform", "config": {"seed": null}, "registered_name": null}, "bias_initializer": {"module": "keras.initializers", "class_name": "Zeros", "config": {}, "registered_name": null}, "kernel_regularizer": null, "bias_regularizer": null, "activity_regularizer": null, "kernel_constraint": null, "bias_constraint": null}, "name": "conv2d_388", "inbound_nodes": [[["mixed0", 0, 0, {}]]]}, {"class_name": "Conv2D", "config": {"name": "conv2d_390", "trainable": false, "dtype": "float32", "filters": 64, "kernel_size": [5, 5], "strides": [1, 1], "padding": "same", "data_format": "channels_last", "dilation_rate": [1, 1], "groups": 1, "activation": "linear", "use_bias": false, "kernel_initializer": {"module": "keras.initializers", "class_name": "GlorotUniform", "config": {"seed": null}, "registered_name": null}, "bias_initializer": {"module": "keras.initializers", "class_name": "Zeros", "config": {}, "registered_name": null}, "kernel_regularizer": null, "bias_regularizer": null, "activity_regularizer": null, "kernel_constraint": null, "bias_constraint": null}, "name": "conv2d_390", "inbound_nodes": [[["activation_389", 0, 0, {}]]]}, {"class_name": "Conv2D", "config": {"name": "conv2d_393", "trainable": false, "dtype": "float32", "filters": 96, "kernel_size": [3, 3], "strides": [1, 1], "padding": "same", "data_format": "channels_last", "dilation_rate": [1, 1], "groups": 1, "activation": "linear", "use_bias": false, "kernel_initializer": {"module": "keras.initializers", "class_name": "GlorotUniform", "config": {"seed": null}, "registered_name": null}, "bias_initializer": {"module": "keras.initializers", "class_name": "Zeros", "config": {}, "registered_name": null}, "kernel_regularizer": null, "bias_regularizer": null, "activity_regularizer": null, "kernel_constraint": null, "bias_constraint": null}, "name": "conv2d_393", "inbound_nodes": [[["activation_392", 0, 0, {}]]]}, {"class_name": "Conv2D", "config": {"name": "conv2d_394", "trainable": false, "dtype": "float32", "filters": 64, "kernel_size": [1, 1], "strides": [1, 1], "padding": "same", "data_format": "channels_last", "dilation_rate": [1, 1], "groups": 1, "activation": "linear", "use_bias": false, "kernel_initializer": {"module": "keras.initializers", "class_name": "GlorotUniform", "config": {"seed": null}, "registered_name": null}, "bias_initializer": {"module": "keras.initializers", "class_name": "Zeros", "config": {}, "registered_name": null}, "kernel_regularizer": null, "bias_regularizer": null, "activity_regularizer": null, "kernel_constraint": null, "bias_constraint": null}, "name": "conv2d_394", "inbound_nodes": [[["average_pooling2d_37", 0, 0, {}]]]}, {"class_name": "BatchNormalization", "config": {"name": "batch_normalization_388", "trainable": false, "dtype": "float32", "axis": [3], "momentum": 0.99, "epsilon": 0.001, "center": true, "scale": false, "beta_initializer": {"module": "keras.initializers", "class_name": "Zeros", "config": {}, "registered_name": null}, "gamma_initializer": {"module": "keras.initializers", "class_name": "Ones", "config": {}, "registered_name": null}, "moving_mean_initializer": {"module": "keras.initializers", "class_name": "Zeros", "config": {}, "registered_name": null}, "moving_variance_initializer": {"module": "keras.initializers", "class_name": "Ones", "config": {}, "registered_name": null}, "beta_regularizer": null, "gamma_regularizer": null, "beta_constraint": null, "gamma_constraint": null}, "name": "batch_normalization_388", "inbound_nodes": [[["conv2d_388", 0, 0, {}]]]}, {"class_name": "BatchNormalization", "config": {"name": "batch_normalization_390", "trainable": false, "dtype": "float32", "axis": [3], "momentum": 0.99, "epsilon": 0.001, "center": true, "scale": false, "beta_initializer": {"module": "keras.initializers", "class_name": "Zeros", "config": {}, "registered_name": null}, "gamma_initializer": {"module": "keras.initializers", "class_name": "Ones", "config": {}, "registered_name": null}, "moving_mean_initializer": {"module": "keras.initializers", "class_name": "Zeros", "config": {}, "registered_name": null}, "moving_variance_initializer": {"module": "keras.initializers", "class_name": "Ones", "config": {}, "registered_name": null}, "beta_regularizer": null, "gamma_regularizer": null, "beta_constraint": null, "gamma_constraint": null}, "name": "batch_normalization_390", "inbound_nodes": [[["conv2d_390", 0, 0, {}]]]}, {"class_name": "BatchNormalization", "config": {"name": "batch_normalization_393", "trainable": false, "dtype": "float32", "axis": [3], "momentum": 0.99, "epsilon": 0.001, "center": true, "scale": false, "beta_initializer": {"module": "keras.initializers", "class_name": "Zeros", "config": {}, "registered_name": null}, "gamma_initializer": {"module": "keras.initializers", "class_name": "Ones", "config": {}, "registered_name": null}, "moving_mean_initializer": {"module": "keras.initializers", "class_name": "Zeros", "config": {}, "registered_name": null}, "moving_variance_initializer": {"module": "keras.initializers", "class_name": "Ones", "config": {}, "registered_name": null}, "beta_regularizer": null, "gamma_regularizer": null, "beta_constraint": null, "gamma_constraint": null}, "name": "batch_normalization_393", "inbound_nodes": [[["conv2d_393", 0, 0, {}]]]}, {"class_name": "BatchNormalization", "config": {"name": "batch_normalization_394", "trainable": false, "dtype": "float32", "axis": [3], "momentum": 0.99, "epsilon": 0.001, "center": true, "scale": false, "beta_initializer": {"module": "keras.initializers", "class_name": "Zeros", "config": {}, "registered_name": null}, "gamma_initializer": {"module": "keras.initializers", "class_name": "Ones", "config": {}, "registered_name": null}, "moving_mean_initializer": {"module": "keras.initializers", "class_name": "Zeros", "config": {}, "registered_name": null}, "moving_variance_initializer": {"module": "keras.initializers", "class_name": "Ones", "config": {}, "registered_name": null}, "beta_regularizer": null, "gamma_regularizer": null, "beta_constraint": null, "gamma_constraint": null}, "name": "batch_normalization_394", "inbound_nodes": [[["conv2d_394", 0, 0, {}]]]}, {"class_name": "Activation", "config": {"name": "activation_388", "trainable": false, "dtype": "float32", "activation": "relu"}, "name": "activation_388", "inbound_nodes": [[["batch_normalization_388", 0, 0, {}]]]}, {"class_name": "Activation", "config": {"name": "activation_390", "trainable": false, "dtype": "float32", "activation": "relu"}, "name": "activation_390", "inbound_nodes": [[["batch_normalization_390", 0, 0, {}]]]}, {"class_name": "Activation", "config": {"name": "activation_393", "trainable": false, "dtype": "float32", "activation": "relu"}, "name": "activation_393", "inbound_nodes": [[["batch_normalization_393", 0, 0, {}]]]}, {"class_name": "Activation", "config": {"name": "activation_394", "trainable": false, "dtype": "float32", "activation": "relu"}, "name": "activation_394", "inbound_nodes": [[["batch_normalization_394", 0, 0, {}]]]}, {"class_name": "Concatenate", "config": {"name": "mixed1", "trainable": false, "dtype": "float32", "axis": 3}, "name": "mixed1", "inbound_nodes": [[["activation_388", 0, 0, {}], ["activation_390", 0, 0, {}], ["activation_393", 0, 0, {}], ["activation_394", 0, 0, {}]]]}, {"class_name": "Conv2D", "config": {"name": "conv2d_398", "trainable": false, "dtype": "float32", "filters": 64, "kernel_size": [1, 1], "strides": [1, 1], "padding": "same", "data_format": "channels_last", "dilation_rate": [1, 1], "groups": 1, "activation": "linear", "use_bias": false, "kernel_initializer": {"module": "keras.initializers", "class_name": "GlorotUniform", "config": {"seed": null}, "registered_name": null}, "bias_initializer": {"module": "keras.initializers", "class_name": "Zeros", "config": {}, "registered_name": null}, "kernel_regularizer": null, "bias_regularizer": null, "activity_regularizer": null, "kernel_constraint": null, "bias_constraint": null}, "name": "conv2d_398", "inbound_nodes": [[["mixed1", 0, 0, {}]]]}, {"class_name": "BatchNormalization", "config": {"name": "batch_normalization_398", "trainable": false, "dtype": "float32", "axis": [3], "momentum": 0.99, "epsilon": 0.001, "center": true, "scale": false, "beta_initializer": {"module": "keras.initializers", "class_name": "Zeros", "config": {}, "registered_name": null}, "gamma_initializer": {"module": "keras.initializers", "class_name": "Ones", "config": {}, "registered_name": null}, "moving_mean_initializer": {"module": "keras.initializers", "class_name": "Zeros", "config": {}, "registered_name": null}, "moving_variance_initializer": {"module": "keras.initializers", "class_name": "Ones", "config": {}, "registered_name": null}, "beta_regularizer": null, "gamma_regularizer": null, "beta_constraint": null, "gamma_constraint": null}, "name": "batch_normalization_398", "inbound_nodes": [[["conv2d_398", 0, 0, {}]]]}, {"class_name": "Activation", "config": {"name": "activation_398", "trainable": false, "dtype": "float32", "activation": "relu"}, "name": "activation_398", "inbound_nodes": [[["batch_normalization_398", 0, 0, {}]]]}, {"class_name": "Conv2D", "config": {"name": "conv2d_396", "trainable": false, "dtype": "float32", "filters": 48, "kernel_size": [1, 1], "strides": [1, 1], "padding": "same", "data_format": "channels_last", "dilation_rate": [1, 1], "groups": 1, "activation": "linear", "use_bias": false, "kernel_initializer": {"module": "keras.initializers", "class_name": "GlorotUniform", "config": {"seed": null}, "registered_name": null}, "bias_initializer": {"module": "keras.initializers", "class_name": "Zeros", "config": {}, "registered_name": null}, "kernel_regularizer": null, "bias_regularizer": null, "activity_regularizer": null, "kernel_constraint": null, "bias_constraint": null}, "name": "conv2d_396", "inbound_nodes": [[["mixed1", 0, 0, {}]]]}, {"class_name": "Conv2D", "config": {"name": "conv2d_399", "trainable": false, "dtype": "float32", "filters": 96, "kernel_size": [3, 3], "strides": [1, 1], "padding": "same", "data_format": "channels_last", "dilation_rate": [1, 1], "groups": 1, "activation": "linear", "use_bias": false, "kernel_initializer": {"module": "keras.initializers", "class_name": "GlorotUniform", "config": {"seed": null}, "registered_name": null}, "bias_initializer": {"module": "keras.initializers", "class_name": "Zeros", "config": {}, "registered_name": null}, "kernel_regularizer": null, "bias_regularizer": null, "activity_regularizer": null, "kernel_constraint": null, "bias_constraint": null}, "name": "conv2d_399", "inbound_nodes": [[["activation_398", 0, 0, {}]]]}, {"class_name": "BatchNormalization", "config": {"name": "batch_normalization_396", "trainable": false, "dtype": "float32", "axis": [3], "momentum": 0.99, "epsilon": 0.001, "center": true, "scale": false, "beta_initializer": {"module": "keras.initializers", "class_name": "Zeros", "config": {}, "registered_name": null}, "gamma_initializer": {"module": "keras.initializers", "class_name": "Ones", "config": {}, "registered_name": null}, "moving_mean_initializer": {"module": "keras.initializers", "class_name": "Zeros", "config": {}, "registered_name": null}, "moving_variance_initializer": {"module": "keras.initializers", "class_name": "Ones", "config": {}, "registered_name": null}, "beta_regularizer": null, "gamma_regularizer": null, "beta_constraint": null, "gamma_constraint": null}, "name": "batch_normalization_396", "inbound_nodes": [[["conv2d_396", 0, 0, {}]]]}, {"class_name": "BatchNormalization", "config": {"name": "batch_normalization_399", "trainable": false, "dtype": "float32", "axis": [3], "momentum": 0.99, "epsilon": 0.001, "center": true, "scale": false, "beta_initializer": {"module": "keras.initializers", "class_name": "Zeros", "config": {}, "registered_name": null}, "gamma_initializer": {"module": "keras.initializers", "class_name": "Ones", "config": {}, "registered_name": null}, "moving_mean_initializer": {"module": "keras.initializers", "class_name": "Zeros", "config": {}, "registered_name": null}, "moving_variance_initializer": {"module": "keras.initializers", "class_name": "Ones", "config": {}, "registered_name": null}, "beta_regularizer": null, "gamma_regularizer": null, "beta_constraint": null, "gamma_constraint": null}, "name": "batch_normalization_399", "inbound_nodes": [[["conv2d_399", 0, 0, {}]]]}, {"class_name": "Activation", "config": {"name": "activation_396", "trainable": false, "dtype": "float32", "activation": "relu"}, "name": "activation_396", "inbound_nodes": [[["batch_normalization_396", 0, 0, {}]]]}, {"class_name": "Activation", "config": {"name": "activation_399", "trainable": false, "dtype": "float32", "activation": "relu"}, "name": "activation_399", "inbound_nodes": [[["batch_normalization_399", 0, 0, {}]]]}, {"class_name": "AveragePooling2D", "config": {"name": "average_pooling2d_38", "trainable": false, "dtype": "float32", "pool_size": [3, 3], "padding": "same", "strides": [1, 1], "data_format": "channels_last"}, "name": "average_pooling2d_38", "inbound_nodes": [[["mixed1", 0, 0, {}]]]}, {"class_name": "Conv2D", "config": {"name": "conv2d_395", "trainable": false, "dtype": "float32", "filters": 64, "kernel_size": [1, 1], "strides": [1, 1], "padding": "same", "data_format": "channels_last", "dilation_rate": [1, 1], "groups": 1, "activation": "linear", "use_bias": false, "kernel_initializer": {"module": "keras.initializers", "class_name": "GlorotUniform", "config": {"seed": null}, "registered_name": null}, "bias_initializer": {"module": "keras.initializers", "class_name": "Zeros", "config": {}, "registered_name": null}, "kernel_regularizer": null, "bias_regularizer": null, "activity_regularizer": null, "kernel_constraint": null, "bias_constraint": null}, "name": "conv2d_395", "inbound_nodes": [[["mixed1", 0, 0, {}]]]}, {"class_name": "Conv2D", "config": {"name": "conv2d_397", "trainable": false, "dtype": "float32", "filters": 64, "kernel_size": [5, 5], "strides": [1, 1], "padding": "same", "data_format": "channels_last", "dilation_rate": [1, 1], "groups": 1, "activation": "linear", "use_bias": false, "kernel_initializer": {"module": "keras.initializers", "class_name": "GlorotUniform", "config": {"seed": null}, "registered_name": null}, "bias_initializer": {"module": "keras.initializers", "class_name": "Zeros", "config": {}, "registered_name": null}, "kernel_regularizer": null, "bias_regularizer": null, "activity_regularizer": null, "kernel_constraint": null, "bias_constraint": null}, "name": "conv2d_397", "inbound_nodes": [[["activation_396", 0, 0, {}]]]}, {"class_name": "Conv2D", "config": {"name": "conv2d_400", "trainable": false, "dtype": "float32", "filters": 96, "kernel_size": [3, 3], "strides": [1, 1], "padding": "same", "data_format": "channels_last", "dilation_rate": [1, 1], "groups": 1, "activation": "linear", "use_bias": false, "kernel_initializer": {"module": "keras.initializers", "class_name": "GlorotUniform", "config": {"seed": null}, "registered_name": null}, "bias_initializer": {"module": "keras.initializers", "class_name": "Zeros", "config": {}, "registered_name": null}, "kernel_regularizer": null, "bias_regularizer": null, "activity_regularizer": null, "kernel_constraint": null, "bias_constraint": null}, "name": "conv2d_400", "inbound_nodes": [[["activation_399", 0, 0, {}]]]}, {"class_name": "Conv2D", "config": {"name": "conv2d_401", "trainable": false, "dtype": "float32", "filters": 64, "kernel_size": [1, 1], "strides": [1, 1], "padding": "same", "data_format": "channels_last", "dilation_rate": [1, 1], "groups": 1, "activation": "linear", "use_bias": false, "kernel_initializer": {"module": "keras.initializers", "class_name": "GlorotUniform", "config": {"seed": null}, "registered_name": null}, "bias_initializer": {"module": "keras.initializers", "class_name": "Zeros", "config": {}, "registered_name": null}, "kernel_regularizer": null, "bias_regularizer": null, "activity_regularizer": null, "kernel_constraint": null, "bias_constraint": null}, "name": "conv2d_401", "inbound_nodes": [[["average_pooling2d_38", 0, 0, {}]]]}, {"class_name": "BatchNormalization", "config": {"name": "batch_normalization_395", "trainable": false, "dtype": "float32", "axis": [3], "momentum": 0.99, "epsilon": 0.001, "center": true, "scale": false, "beta_initializer": {"module": "keras.initializers", "class_name": "Zeros", "config": {}, "registered_name": null}, "gamma_initializer": {"module": "keras.initializers", "class_name": "Ones", "config": {}, "registered_name": null}, "moving_mean_initializer": {"module": "keras.initializers", "class_name": "Zeros", "config": {}, "registered_name": null}, "moving_variance_initializer": {"module": "keras.initializers", "class_name": "Ones", "config": {}, "registered_name": null}, "beta_regularizer": null, "gamma_regularizer": null, "beta_constraint": null, "gamma_constraint": null}, "name": "batch_normalization_395", "inbound_nodes": [[["conv2d_395", 0, 0, {}]]]}, {"class_name": "BatchNormalization", "config": {"name": "batch_normalization_397", "trainable": false, "dtype": "float32", "axis": [3], "momentum": 0.99, "epsilon": 0.001, "center": true, "scale": false, "beta_initializer": {"module": "keras.initializers", "class_name": "Zeros", "config": {}, "registered_name": null}, "gamma_initializer": {"module": "keras.initializers", "class_name": "Ones", "config": {}, "registered_name": null}, "moving_mean_initializer": {"module": "keras.initializers", "class_name": "Zeros", "config": {}, "registered_name": null}, "moving_variance_initializer": {"module": "keras.initializers", "class_name": "Ones", "config": {}, "registered_name": null}, "beta_regularizer": null, "gamma_regularizer": null, "beta_constraint": null, "gamma_constraint": null}, "name": "batch_normalization_397", "inbound_nodes": [[["conv2d_397", 0, 0, {}]]]}, {"class_name": "BatchNormalization", "config": {"name": "batch_normalization_400", "trainable": false, "dtype": "float32", "axis": [3], "momentum": 0.99, "epsilon": 0.001, "center": true, "scale": false, "beta_initializer": {"module": "keras.initializers", "class_name": "Zeros", "config": {}, "registered_name": null}, "gamma_initializer": {"module": "keras.initializers", "class_name": "Ones", "config": {}, "registered_name": null}, "moving_mean_initializer": {"module": "keras.initializers", "class_name": "Zeros", "config": {}, "registered_name": null}, "moving_variance_initializer": {"module": "keras.initializers", "class_name": "Ones", "config": {}, "registered_name": null}, "beta_regularizer": null, "gamma_regularizer": null, "beta_constraint": null, "gamma_constraint": null}, "name": "batch_normalization_400", "inbound_nodes": [[["conv2d_400", 0, 0, {}]]]}, {"class_name": "BatchNormalization", "config": {"name": "batch_normalization_401", "trainable": false, "dtype": "float32", "axis": [3], "momentum": 0.99, "epsilon": 0.001, "center": true, "scale": false, "beta_initializer": {"module": "keras.initializers", "class_name": "Zeros", "config": {}, "registered_name": null}, "gamma_initializer": {"module": "keras.initializers", "class_name": "Ones", "config": {}, "registered_name": null}, "moving_mean_initializer": {"module": "keras.initializers", "class_name": "Zeros", "config": {}, "registered_name": null}, "moving_variance_initializer": {"module": "keras.initializers", "class_name": "Ones", "config": {}, "registered_name": null}, "beta_regularizer": null, "gamma_regularizer": null, "beta_constraint": null, "gamma_constraint": null}, "name": "batch_normalization_401", "inbound_nodes": [[["conv2d_401", 0, 0, {}]]]}, {"class_name": "Activation", "config": {"name": "activation_395", "trainable": false, "dtype": "float32", "activation": "relu"}, "name": "activation_395", "inbound_nodes": [[["batch_normalization_395", 0, 0, {}]]]}, {"class_name": "Activation", "config": {"name": "activation_397", "trainable": false, "dtype": "float32", "activation": "relu"}, "name": "activation_397", "inbound_nodes": [[["batch_normalization_397", 0, 0, {}]]]}, {"class_name": "Activation", "config": {"name": "activation_400", "trainable": false, "dtype": "float32", "activation": "relu"}, "name": "activation_400", "inbound_nodes": [[["batch_normalization_400", 0, 0, {}]]]}, {"class_name": "Activation", "config": {"name": "activation_401", "trainable": false, "dtype": "float32", "activation": "relu"}, "name": "activation_401", "inbound_nodes": [[["batch_normalization_401", 0, 0, {}]]]}, {"class_name": "Concatenate", "config": {"name": "mixed2", "trainable": false, "dtype": "float32", "axis": 3}, "name": "mixed2", "inbound_nodes": [[["activation_395", 0, 0, {}], ["activation_397", 0, 0, {}], ["activation_400", 0, 0, {}], ["activation_401", 0, 0, {}]]]}, {"class_name": "Conv2D", "config": {"name": "conv2d_403", "trainable": false, "dtype": "float32", "filters": 64, "kernel_size": [1, 1], "strides": [1, 1], "padding": "same", "data_format": "channels_last", "dilation_rate": [1, 1], "groups": 1, "activation": "linear", "use_bias": false, "kernel_initializer": {"module": "keras.initializers", "class_name": "GlorotUniform", "config": {"seed": null}, "registered_name": null}, "bias_initializer": {"module": "keras.initializers", "class_name": "Zeros", "config": {}, "registered_name": null}, "kernel_regularizer": null, "bias_regularizer": null, "activity_regularizer": null, "kernel_constraint": null, "bias_constraint": null}, "name": "conv2d_403", "inbound_nodes": [[["mixed2", 0, 0, {}]]]}, {"class_name": "BatchNormalization", "config": {"name": "batch_normalization_403", "trainable": false, "dtype": "float32", "axis": [3], "momentum": 0.99, "epsilon": 0.001, "center": true, "scale": false, "beta_initializer": {"module": "keras.initializers", "class_name": "Zeros", "config": {}, "registered_name": null}, "gamma_initializer": {"module": "keras.initializers", "class_name": "Ones", "config": {}, "registered_name": null}, "moving_mean_initializer": {"module": "keras.initializers", "class_name": "Zeros", "config": {}, "registered_name": null}, "moving_variance_initializer": {"module": "keras.initializers", "class_name": "Ones", "config": {}, "registered_name": null}, "beta_regularizer": null, "gamma_regularizer": null, "beta_constraint": null, "gamma_constraint": null}, "name": "batch_normalization_403", "inbound_nodes": [[["conv2d_403", 0, 0, {}]]]}, {"class_name": "Activation", "config": {"name": "activation_403", "trainable": false, "dtype": "float32", "activation": "relu"}, "name": "activation_403", "inbound_nodes": [[["batch_normalization_403", 0, 0, {}]]]}, {"class_name": "Conv2D", "config": {"name": "conv2d_404", "trainable": false, "dtype": "float32", "filters": 96, "kernel_size": [3, 3], "strides": [1, 1], "padding": "same", "data_format": "channels_last", "dilation_rate": [1, 1], "groups": 1, "activation": "linear", "use_bias": false, "kernel_initializer": {"module": "keras.initializers", "class_name": "GlorotUniform", "config": {"seed": null}, "registered_name": null}, "bias_initializer": {"module": "keras.initializers", "class_name": "Zeros", "config": {}, "registered_name": null}, "kernel_regularizer": null, "bias_regularizer": null, "activity_regularizer": null, "kernel_constraint": null, "bias_constraint": null}, "name": "conv2d_404", "inbound_nodes": [[["activation_403", 0, 0, {}]]]}, {"class_name": "BatchNormalization", "config": {"name": "batch_normalization_404", "trainable": false, "dtype": "float32", "axis": [3], "momentum": 0.99, "epsilon": 0.001, "center": true, "scale": false, "beta_initializer": {"module": "keras.initializers", "class_name": "Zeros", "config": {}, "registered_name": null}, "gamma_initializer": {"module": "keras.initializers", "class_name": "Ones", "config": {}, "registered_name": null}, "moving_mean_initializer": {"module": "keras.initializers", "class_name": "Zeros", "config": {}, "registered_name": null}, "moving_variance_initializer": {"module": "keras.initializers", "class_name": "Ones", "config": {}, "registered_name": null}, "beta_regularizer": null, "gamma_regularizer": null, "beta_constraint": null, "gamma_constraint": null}, "name": "batch_normalization_404", "inbound_nodes": [[["conv2d_404", 0, 0, {}]]]}, {"class_name": "Activation", "config": {"name": "activation_404", "trainable": false, "dtype": "float32", "activation": "relu"}, "name": "activation_404", "inbound_nodes": [[["batch_normalization_404", 0, 0, {}]]]}, {"class_name": "Conv2D", "config": {"name": "conv2d_402", "trainable": false, "dtype": "float32", "filters": 384, "kernel_size": [3, 3], "strides": [2, 2], "padding": "valid", "data_format": "channels_last", "dilation_rate": [1, 1], "groups": 1, "activation": "linear", "use_bias": false, "kernel_initializer": {"module": "keras.initializers", "class_name": "GlorotUniform", "config": {"seed": null}, "registered_name": null}, "bias_initializer": {"module": "keras.initializers", "class_name": "Zeros", "config": {}, "registered_name": null}, "kernel_regularizer": null, "bias_regularizer": null, "activity_regularizer": null, "kernel_constraint": null, "bias_constraint": null}, "name": "conv2d_402", "inbound_nodes": [[["mixed2", 0, 0, {}]]]}, {"class_name": "Conv2D", "config": {"name": "conv2d_405", "trainable": false, "dtype": "float32", "filters": 96, "kernel_size": [3, 3], "strides": [2, 2], "padding": "valid", "data_format": "channels_last", "dilation_rate": [1, 1], "groups": 1, "activation": "linear", "use_bias": false, "kernel_initializer": {"module": "keras.initializers", "class_name": "GlorotUniform", "config": {"seed": null}, "registered_name": null}, "bias_initializer": {"module": "keras.initializers", "class_name": "Zeros", "config": {}, "registered_name": null}, "kernel_regularizer": null, "bias_regularizer": null, "activity_regularizer": null, "kernel_constraint": null, "bias_constraint": null}, "name": "conv2d_405", "inbound_nodes": [[["activation_404", 0, 0, {}]]]}, {"class_name": "BatchNormalization", "config": {"name": "batch_normalization_402", "trainable": false, "dtype": "float32", "axis": [3], "momentum": 0.99, "epsilon": 0.001, "center": true, "scale": false, "beta_initializer": {"module": "keras.initializers", "class_name": "Zeros", "config": {}, "registered_name": null}, "gamma_initializer": {"module": "keras.initializers", "class_name": "Ones", "config": {}, "registered_name": null}, "moving_mean_initializer": {"module": "keras.initializers", "class_name": "Zeros", "config": {}, "registered_name": null}, "moving_variance_initializer": {"module": "keras.initializers", "class_name": "Ones", "config": {}, "registered_name": null}, "beta_regularizer": null, "gamma_regularizer": null, "beta_constraint": null, "gamma_constraint": null}, "name": "batch_normalization_402", "inbound_nodes": [[["conv2d_402", 0, 0, {}]]]}, {"class_name": "BatchNormalization", "config": {"name": "batch_normalization_405", "trainable": false, "dtype": "float32", "axis": [3], "momentum": 0.99, "epsilon": 0.001, "center": true, "scale": false, "beta_initializer": {"module": "keras.initializers", "class_name": "Zeros", "config": {}, "registered_name": null}, "gamma_initializer": {"module": "keras.initializers", "class_name": "Ones", "config": {}, "registered_name": null}, "moving_mean_initializer": {"module": "keras.initializers", "class_name": "Zeros", "config": {}, "registered_name": null}, "moving_variance_initializer": {"module": "keras.initializers", "class_name": "Ones", "config": {}, "registered_name": null}, "beta_regularizer": null, "gamma_regularizer": null, "beta_constraint": null, "gamma_constraint": null}, "name": "batch_normalization_405", "inbound_nodes": [[["conv2d_405", 0, 0, {}]]]}, {"class_name": "Activation", "config": {"name": "activation_402", "trainable": false, "dtype": "float32", "activation": "relu"}, "name": "activation_402", "inbound_nodes": [[["batch_normalization_402", 0, 0, {}]]]}, {"class_name": "Activation", "config": {"name": "activation_405", "trainable": false, "dtype": "float32", "activation": "relu"}, "name": "activation_405", "inbound_nodes": [[["batch_normalization_405", 0, 0, {}]]]}, {"class_name": "MaxPooling2D", "config": {"name": "max_pooling2d_18", "trainable": false, "dtype": "float32", "pool_size": [3, 3], "padding": "valid", "strides": [2, 2], "data_format": "channels_last"}, "name": "max_pooling2d_18", "inbound_nodes": [[["mixed2", 0, 0, {}]]]}, {"class_name": "Concatenate", "config": {"name": "mixed3", "trainable": false, "dtype": "float32", "axis": 3}, "name": "mixed3", "inbound_nodes": [[["activation_402", 0, 0, {}], ["activation_405", 0, 0, {}], ["max_pooling2d_18", 0, 0, {}]]]}, {"class_name": "Flatten", "config": {"name": "flatten_8", "trainable": true, "dtype": "float32", "data_format": "channels_last"}, "name": "flatten_8", "inbound_nodes": [[["mixed3", 0, 0, {}]]]}, {"class_name": "Dense", "config": {"name": "dense_8", "trainable": true, "dtype": "float32", "units": 14, "activation": "softmax", "use_bias": true, "kernel_initializer": {"module": "keras.initializers", "class_name": "GlorotUniform", "config": {"seed": null}, "registered_name": null}, "bias_initializer": {"module": "keras.initializers", "class_name": "Zeros", "config": {}, "registered_name": null}, "kernel_regularizer": null, "bias_regularizer": null, "activity_regularizer": null, "kernel_constraint": null, "bias_constraint": null}, "name": "dense_8", "inbound_nodes": [[["flatten_8", 0, 0, {}]]]}], "input_layers": [["input_13", 0, 0]], "output_layers": [["dense_8", 0, 0]]}}, "training_config": {"loss": "categorical_crossentropy", "metrics": [[{"class_name": "MeanMetricWrapper", "config": {"name": "accuracy", "dtype": "float32", "fn": "categorical_accuracy"}}]], "weighted_metrics": null, "loss_weights": null, "optimizer_config": {"class_name": "Custom>Adam", "config": {"name": "Adam", "weight_decay": null, "clipnorm": null, "global_clipnorm": null, "clipvalue": null, "use_ema": false, "ema_momentum": 0.99, "ema_overwrite_frequency": null, "jit_compile": false, "is_legacy_optimizer": false, "learning_rate": 0.0010000000474974513, "beta_1": 0.9, "beta_2": 0.999, "epsilon": 1e-07, "amsgrad": false}}}}, "weightsManifest": [{"paths": ["group1-shard1of3.bin", "group1-shard2of3.bin", "group1-shard3of3.bin"], "weights": [{"name": "batch_normalization_376/beta", "shape": [32], "dtype": "float32"}, {"name": "batch_normalization_376/moving_mean", "shape": [32], "dtype": "float32"}, {"name": "batch_normalization_376/moving_variance", "shape": [32], "dtype": "float32"}, {"name": "batch_normalization_377/beta", "shape": [32], "dtype": "float32"}, {"name": "batch_normalization_377/moving_mean", "shape": [32], "dtype": "float32"}, {"name": "batch_normalization_377/moving_variance", "shape": [32], "dtype": "float32"}, {"name": "batch_normalization_378/beta", "shape": [64], "dtype": "float32"}, {"name": "batch_normalization_378/moving_mean", "shape": [64], "dtype": "float32"}, {"name": "batch_normalization_378/moving_variance", "shape": [64], "dtype": "float32"}, {"name": "batch_normalization_379/beta", "shape": [80], "dtype": "float32"}, {"name": "batch_normalization_379/moving_mean", "shape": [80], "dtype": "float32"}, {"name": "batch_normalization_379/moving_variance", "shape": [80], "dtype": "float32"}, {"name": "batch_normalization_380/beta", "shape": [192], "dtype": "float32"}, {"name": "batch_normalization_380/moving_mean", "shape": [192], "dtype": "float32"}, {"name": "batch_normalization_380/moving_variance", "shape": [192], "dtype": "float32"}, {"name": "batch_normalization_381/beta", "shape": [64], "dtype": "float32"}, {"name": "batch_normalization_381/moving_mean", "shape": [64], "dtype": "float32"}, {"name": "batch_normalization_381/moving_variance", "shape": [64], "dtype": "float32"}, {"name": "batch_normalization_382/beta", "shape": [48], "dtype": "float32"}, {"name": "batch_normalization_382/moving_mean", "shape": [48], "dtype": "float32"}, {"name": "batch_normalization_382/moving_variance", "shape": [48], "dtype": "float32"}, {"name": "batch_normalization_383/beta", "shape": [64], "dtype": "float32"}, {"name": "batch_normalization_383/moving_mean", "shape": [64], "dtype": "float32"}, {"name": "batch_normalization_383/moving_variance", "shape": [64], "dtype": "float32"}, {"name": "batch_normalization_384/beta", "shape": [64], "dtype": "float32"}, {"name": "batch_normalization_384/moving_mean", "shape": [64], "dtype": "float32"}, {"name": "batch_normalization_384/moving_variance", "shape": [64], "dtype": "float32"}, {"name": "batch_normalization_385/beta", "shape": [96], "dtype": "float32"}, {"name": "batch_normalization_385/moving_mean", "shape": [96], "dtype": "float32"}, {"name": "batch_normalization_385/moving_variance", "shape": [96], "dtype": "float32"}, {"name": "batch_normalization_386/beta", "shape": [96], "dtype": "float32"}, {"name": "batch_normalization_386/moving_mean", "shape": [96], "dtype": "float32"}, {"name": "batch_normalization_386/moving_variance", "shape": [96], "dtype": "float32"}, {"name": "batch_normalization_387/beta", "shape": [32], "dtype": "float32"}, {"name": "batch_normalization_387/moving_mean", "shape": [32], "dtype": "float32"}, {"name": "batch_normalization_387/moving_variance", "shape": [32], "dtype": "float32"}, {"name": "batch_normalization_388/beta", "shape": [64], "dtype": "float32"}, {"name": "batch_normalization_388/moving_mean", "shape": [64], "dtype": "float32"}, {"name": "batch_normalization_388/moving_variance", "shape": [64], "dtype": "float32"}, {"name": "batch_normalization_389/beta", "shape": [48], "dtype": "float32"}, {"name": "batch_normalization_389/moving_mean", "shape": [48], "dtype": "float32"}, {"name": "batch_normalization_389/moving_variance", "shape": [48], "dtype": "float32"}, {"name": "batch_normalization_390/beta", "shape": [64], "dtype": "float32"}, {"name": "batch_normalization_390/moving_mean", "shape": [64], "dtype": "float32"}, {"name": "batch_normalization_390/moving_variance", "shape": [64], "dtype": "float32"}, {"name": "batch_normalization_391/beta", "shape": [64], "dtype": "float32"}, {"name": "batch_normalization_391/moving_mean", "shape": [64], "dtype": "float32"}, {"name": "batch_normalization_391/moving_variance", "shape": [64], "dtype": "float32"}, {"name": "batch_normalization_392/beta", "shape": [96], "dtype": "float32"}, {"name": "batch_normalization_392/moving_mean", "shape": [96], "dtype": "float32"}, {"name": "batch_normalization_392/moving_variance", "shape": [96], "dtype": "float32"}, {"name": "batch_normalization_393/beta", "shape": [96], "dtype": "float32"}, {"name": "batch_normalization_393/moving_mean", "shape": [96], "dtype": "float32"}, {"name": "batch_normalization_393/moving_variance", "shape": [96], "dtype": "float32"}, {"name": "batch_normalization_394/beta", "shape": [64], "dtype": "float32"}, {"name": "batch_normalization_394/moving_mean", "shape": [64], "dtype": "float32"}, {"name": "batch_normalization_394/moving_variance", "shape": [64], "dtype": "float32"}, {"name": "batch_normalization_395/beta", "shape": [64], "dtype": "float32"}, {"name": "batch_normalization_395/moving_mean", "shape": [64], "dtype": "float32"}, {"name": "batch_normalization_395/moving_variance", "shape": [64], "dtype": "float32"}, {"name": "batch_normalization_396/beta", "shape": [48], "dtype": "float32"}, {"name": "batch_normalization_396/moving_mean", "shape": [48], "dtype": "float32"}, {"name": "batch_normalization_396/moving_variance", "shape": [48], "dtype": "float32"}, {"name": "batch_normalization_397/beta", "shape": [64], "dtype": "float32"}, {"name": "batch_normalization_397/moving_mean", "shape": [64], "dtype": "float32"}, {"name": "batch_normalization_397/moving_variance", "shape": [64], "dtype": "float32"}, {"name": "batch_normalization_398/beta", "shape": [64], "dtype": "float32"}, {"name": "batch_normalization_398/moving_mean", "shape": [64], "dtype": "float32"}, {"name": "batch_normalization_398/moving_variance", "shape": [64], "dtype": "float32"}, {"name": "batch_normalization_399/beta", "shape": [96], "dtype": "float32"}, {"name": "batch_normalization_399/moving_mean", "shape": [96], "dtype": "float32"}, {"name": "batch_normalization_399/moving_variance", "shape": [96], "dtype": "float32"}, {"name": "batch_normalization_400/beta", "shape": [96], "dtype": "float32"}, {"name": "batch_normalization_400/moving_mean", "shape": [96], "dtype": "float32"}, {"name": "batch_normalization_400/moving_variance", "shape": [96], "dtype": "float32"}, {"name": "batch_normalization_401/beta", "shape": [64], "dtype": "float32"}, {"name": "batch_normalization_401/moving_mean", "shape": [64], "dtype": "float32"}, {"name": "batch_normalization_401/moving_variance", "shape": [64], "dtype": "float32"}, {"name": "batch_normalization_402/beta", "shape": [384], "dtype": "float32"}, {"name": "batch_normalization_402/moving_mean", "shape": [384], "dtype": "float32"}, {"name": "batch_normalization_402/moving_variance", "shape": [384], "dtype": "float32"}, {"name": "batch_normalization_403/beta", "shape": [64], "dtype": "float32"}, {"name": "batch_normalization_403/moving_mean", "shape": [64], "dtype": "float32"}, {"name": "batch_normalization_403/moving_variance", "shape": [64], "dtype": "float32"}, {"name": "batch_normalization_404/beta", "shape": [96], "dtype": "float32"}, {"name": "batch_normalization_404/moving_mean", "shape": [96], "dtype": "float32"}, {"name": "batch_normalization_404/moving_variance", "shape": [96], "dtype": "float32"}, {"name": "batch_normalization_405/beta", "shape": [96], "dtype": "float32"}, {"name": "batch_normalization_405/moving_mean", "shape": [96], "dtype": "float32"}, {"name": "batch_normalization_405/moving_variance", "shape": [96], "dtype": "float32"}, {"name": "conv2d_376/kernel", "shape": [3, 3, 3, 32], "dtype": "float32"}, {"name": "conv2d_377/kernel", "shape": [3, 3, 32, 32], "dtype": "float32"}, {"name": "conv2d_378/kernel", "shape": [3, 3, 32, 64], "dtype": "float32"}, {"name": "conv2d_379/kernel", "shape": [1, 1, 64, 80], "dtype": "float32"}, {"name": "conv2d_380/kernel", "shape": [3, 3, 80, 192], "dtype": "float32"}, {"name": "conv2d_381/kernel", "shape": [1, 1, 192, 64], "dtype": "float32"}, {"name": "conv2d_382/kernel", "shape": [1, 1, 192, 48], "dtype": "float32"}, {"name": "conv2d_383/kernel", "shape": [5, 5, 48, 64], "dtype": "float32"}, {"name": "conv2d_384/kernel", "shape": [1, 1, 192, 64], "dtype": "float32"}, {"name": "conv2d_385/kernel", "shape": [3, 3, 64, 96], "dtype": "float32"}, {"name": "conv2d_386/kernel", "shape": [3, 3, 96, 96], "dtype": "float32"}, {"name": "conv2d_387/kernel", "shape": [1, 1, 192, 32], "dtype": "float32"}, {"name": "conv2d_388/kernel", "shape": [1, 1, 256, 64], "dtype": "float32"}, {"name": "conv2d_389/kernel", "shape": [1, 1, 256, 48], "dtype": "float32"}, {"name": "conv2d_390/kernel", "shape": [5, 5, 48, 64], "dtype": "float32"}, {"name": "conv2d_391/kernel", "shape": [1, 1, 256, 64], "dtype": "float32"}, {"name": "conv2d_392/kernel", "shape": [3, 3, 64, 96], "dtype": "float32"}, {"name": "conv2d_393/kernel", "shape": [3, 3, 96, 96], "dtype": "float32"}, {"name": "conv2d_394/kernel", "shape": [1, 1, 256, 64], "dtype": "float32"}, {"name": "conv2d_395/kernel", "shape": [1, 1, 288, 64], "dtype": "float32"}, {"name": "conv2d_396/kernel", "shape": [1, 1, 288, 48], "dtype": "float32"}, {"name": "conv2d_397/kernel", "shape": [5, 5, 48, 64], "dtype": "float32"}, {"name": "conv2d_398/kernel", "shape": [1, 1, 288, 64], "dtype": "float32"}, {"name": "conv2d_399/kernel", "shape": [3, 3, 64, 96], "dtype": "float32"}, {"name": "conv2d_400/kernel", "shape": [3, 3, 96, 96], "dtype": "float32"}, {"name": "conv2d_401/kernel", "shape": [1, 1, 288, 64], "dtype": "float32"}, {"name": "conv2d_402/kernel", "shape": [3, 3, 288, 384], "dtype": "float32"}, {"name": "conv2d_403/kernel", "shape": [1, 1, 288, 64], "dtype": "float32"}, {"name": "conv2d_404/kernel", "shape": [3, 3, 64, 96], "dtype": "float32"}, {"name": "conv2d_405/kernel", "shape": [3, 3, 96, 96], "dtype": "float32"}, {"name": "dense_8/kernel", "shape": [37632, 14], "dtype": "float32"}, {"name": "dense_8/bias", "shape": [14], "dtype": "float32"}]}]}