{"format": "layers-model", "generatedBy": "keras v2.15.0", "convertedBy": "TensorFlow.js Converter v4.14.0", "modelTopology": {"keras_version": "2.15.0", "backend": "tensorflow", "model_config": {"class_name": "Functional", "config": {"name": "model_11", "trainable": true, "layers": [{"class_name": "InputLayer", "config": {"batch_input_shape": [null, 150, 150, 3], "dtype": "float32", "sparse": false, "ragged": false, "name": "input_12"}, "name": "input_12", "inbound_nodes": []}, {"class_name": "Conv2D", "config": {"name": "conv2d_1034", "trainable": false, "dtype": "float32", "filters": 32, "kernel_size": [3, 3], "strides": [2, 2], "padding": "valid", "data_format": "channels_last", "dilation_rate": [1, 1], "groups": 1, "activation": "linear", "use_bias": false, "kernel_initializer": {"module": "keras.initializers", "class_name": "GlorotUniform", "config": {"seed": null}, "registered_name": null}, "bias_initializer": {"module": "keras.initializers", "class_name": "Zeros", "config": {}, "registered_name": null}, "kernel_regularizer": null, "bias_regularizer": null, "activity_regularizer": null, "kernel_constraint": null, "bias_constraint": null}, "name": "conv2d_1034", "inbound_nodes": [[["input_12", 0, 0, {}]]]}, {"class_name": "BatchNormalization", "config": {"name": "batch_normalization_1034", "trainable": false, "dtype": "float32", "axis": [3], "momentum": 0.99, "epsilon": 0.001, "center": true, "scale": false, "beta_initializer": {"module": "keras.initializers", "class_name": "Zeros", "config": {}, "registered_name": null}, "gamma_initializer": {"module": "keras.initializers", "class_name": "Ones", "config": {}, "registered_name": null}, "moving_mean_initializer": {"module": "keras.initializers", "class_name": "Zeros", "config": {}, "registered_name": null}, "moving_variance_initializer": {"module": "keras.initializers", "class_name": "Ones", "config": {}, "registered_name": null}, "beta_regularizer": null, "gamma_regularizer": null, "beta_constraint": null, "gamma_constraint": null}, "name": "batch_normalization_1034", "inbound_nodes": [[["conv2d_1034", 0, 0, {}]]]}, {"class_name": "Activation", "config": {"name": "activation_1034", "trainable": false, "dtype": "float32", "activation": "relu"}, "name": "activation_1034", "inbound_nodes": [[["batch_normalization_1034", 0, 0, {}]]]}, {"class_name": "Conv2D", "config": {"name": "conv2d_1035", "trainable": false, "dtype": "float32", "filters": 32, "kernel_size": [3, 3], "strides": [1, 1], "padding": "valid", "data_format": "channels_last", "dilation_rate": [1, 1], "groups": 1, "activation": "linear", "use_bias": false, "kernel_initializer": {"module": "keras.initializers", "class_name": "GlorotUniform", "config": {"seed": null}, "registered_name": null}, "bias_initializer": {"module": "keras.initializers", "class_name": "Zeros", "config": {}, "registered_name": null}, "kernel_regularizer": null, "bias_regularizer": null, "activity_regularizer": null, "kernel_constraint": null, "bias_constraint": null}, "name": "conv2d_1035", "inbound_nodes": [[["activation_1034", 0, 0, {}]]]}, {"class_name": "BatchNormalization", "config": {"name": "batch_normalization_1035", "trainable": false, "dtype": "float32", "axis": [3], "momentum": 0.99, "epsilon": 0.001, "center": true, "scale": false, "beta_initializer": {"module": "keras.initializers", "class_name": "Zeros", "config": {}, "registered_name": null}, "gamma_initializer": {"module": "keras.initializers", "class_name": "Ones", "config": {}, "registered_name": null}, "moving_mean_initializer": {"module": "keras.initializers", "class_name": "Zeros", "config": {}, "registered_name": null}, "moving_variance_initializer": {"module": "keras.initializers", "class_name": "Ones", "config": {}, "registered_name": null}, "beta_regularizer": null, "gamma_regularizer": null, "beta_constraint": null, "gamma_constraint": null}, "name": "batch_normalization_1035", "inbound_nodes": [[["conv2d_1035", 0, 0, {}]]]}, {"class_name": "Activation", "config": {"name": "activation_1035", "trainable": false, "dtype": "float32", "activation": "relu"}, "name": "activation_1035", "inbound_nodes": [[["batch_normalization_1035", 0, 0, {}]]]}, {"class_name": "Conv2D", "config": {"name": "conv2d_1036", "trainable": false, "dtype": "float32", "filters": 64, "kernel_size": [3, 3], "strides": [1, 1], "padding": "same", "data_format": "channels_last", "dilation_rate": [1, 1], "groups": 1, "activation": "linear", "use_bias": false, "kernel_initializer": {"module": "keras.initializers", "class_name": "GlorotUniform", "config": {"seed": null}, "registered_name": null}, "bias_initializer": {"module": "keras.initializers", "class_name": "Zeros", "config": {}, "registered_name": null}, "kernel_regularizer": null, "bias_regularizer": null, "activity_regularizer": null, "kernel_constraint": null, "bias_constraint": null}, "name": "conv2d_1036", "inbound_nodes": [[["activation_1035", 0, 0, {}]]]}, {"class_name": "BatchNormalization", "config": {"name": "batch_normalization_1036", "trainable": false, "dtype": "float32", "axis": [3], "momentum": 0.99, "epsilon": 0.001, "center": true, "scale": false, "beta_initializer": {"module": "keras.initializers", "class_name": "Zeros", "config": {}, "registered_name": null}, "gamma_initializer": {"module": "keras.initializers", "class_name": "Ones", "config": {}, "registered_name": null}, "moving_mean_initializer": {"module": "keras.initializers", "class_name": "Zeros", "config": {}, "registered_name": null}, "moving_variance_initializer": {"module": "keras.initializers", "class_name": "Ones", "config": {}, "registered_name": null}, "beta_regularizer": null, "gamma_regularizer": null, "beta_constraint": null, "gamma_constraint": null}, "name": "batch_normalization_1036", "inbound_nodes": [[["conv2d_1036", 0, 0, {}]]]}, {"class_name": "Activation", "config": {"name": "activation_1036", "trainable": false, "dtype": "float32", "activation": "relu"}, "name": "activation_1036", "inbound_nodes": [[["batch_normalization_1036", 0, 0, {}]]]}, {"class_name": "MaxPooling2D", "config": {"name": "max_pooling2d_44", "trainable": false, "dtype": "float32", "pool_size": [3, 3], "padding": "valid", "strides": [2, 2], "data_format": "channels_last"}, "name": "max_pooling2d_44", "inbound_nodes": [[["activation_1036", 0, 0, {}]]]}, {"class_name": "Conv2D", "config": {"name": "conv2d_1037", "trainable": false, "dtype": "float32", "filters": 80, "kernel_size": [1, 1], "strides": [1, 1], "padding": "valid", "data_format": "channels_last", "dilation_rate": [1, 1], "groups": 1, "activation": "linear", "use_bias": false, "kernel_initializer": {"module": "keras.initializers", "class_name": "GlorotUniform", "config": {"seed": null}, "registered_name": null}, "bias_initializer": {"module": "keras.initializers", "class_name": "Zeros", "config": {}, "registered_name": null}, "kernel_regularizer": null, "bias_regularizer": null, "activity_regularizer": null, "kernel_constraint": null, "bias_constraint": null}, "name": "conv2d_1037", "inbound_nodes": [[["max_pooling2d_44", 0, 0, {}]]]}, {"class_name": "BatchNormalization", "config": {"name": "batch_normalization_1037", "trainable": false, "dtype": "float32", "axis": [3], "momentum": 0.99, "epsilon": 0.001, "center": true, "scale": false, "beta_initializer": {"module": "keras.initializers", "class_name": "Zeros", "config": {}, "registered_name": null}, "gamma_initializer": {"module": "keras.initializers", "class_name": "Ones", "config": {}, "registered_name": null}, "moving_mean_initializer": {"module": "keras.initializers", "class_name": "Zeros", "config": {}, "registered_name": null}, "moving_variance_initializer": {"module": "keras.initializers", "class_name": "Ones", "config": {}, "registered_name": null}, "beta_regularizer": null, "gamma_regularizer": null, "beta_constraint": null, "gamma_constraint": null}, "name": "batch_normalization_1037", "inbound_nodes": [[["conv2d_1037", 0, 0, {}]]]}, {"class_name": "Activation", "config": {"name": "activation_1037", "trainable": false, "dtype": "float32", "activation": "relu"}, "name": "activation_1037", "inbound_nodes": [[["batch_normalization_1037", 0, 0, {}]]]}, {"class_name": "Conv2D", "config": {"name": "conv2d_1038", "trainable": false, "dtype": "float32", "filters": 192, "kernel_size": [3, 3], "strides": [1, 1], "padding": "valid", "data_format": "channels_last", "dilation_rate": [1, 1], "groups": 1, "activation": "linear", "use_bias": false, "kernel_initializer": {"module": "keras.initializers", "class_name": "GlorotUniform", "config": {"seed": null}, "registered_name": null}, "bias_initializer": {"module": "keras.initializers", "class_name": "Zeros", "config": {}, "registered_name": null}, "kernel_regularizer": null, "bias_regularizer": null, "activity_regularizer": null, "kernel_constraint": null, "bias_constraint": null}, "name": "conv2d_1038", "inbound_nodes": [[["activation_1037", 0, 0, {}]]]}, {"class_name": "BatchNormalization", "config": {"name": "batch_normalization_1038", "trainable": false, "dtype": "float32", "axis": [3], "momentum": 0.99, "epsilon": 0.001, "center": true, "scale": false, "beta_initializer": {"module": "keras.initializers", "class_name": "Zeros", "config": {}, "registered_name": null}, "gamma_initializer": {"module": "keras.initializers", "class_name": "Ones", "config": {}, "registered_name": null}, "moving_mean_initializer": {"module": "keras.initializers", "class_name": "Zeros", "config": {}, "registered_name": null}, "moving_variance_initializer": {"module": "keras.initializers", "class_name": "Ones", "config": {}, "registered_name": null}, "beta_regularizer": null, "gamma_regularizer": null, "beta_constraint": null, "gamma_constraint": null}, "name": "batch_normalization_1038", "inbound_nodes": [[["conv2d_1038", 0, 0, {}]]]}, {"class_name": "Activation", "config": {"name": "activation_1038", "trainable": false, "dtype": "float32", "activation": "relu"}, "name": "activation_1038", "inbound_nodes": [[["batch_normalization_1038", 0, 0, {}]]]}, {"class_name": "MaxPooling2D", "config": {"name": "max_pooling2d_45", "trainable": false, "dtype": "float32", "pool_size": [3, 3], "padding": "valid", "strides": [2, 2], "data_format": "channels_last"}, "name": "max_pooling2d_45", "inbound_nodes": [[["activation_1038", 0, 0, {}]]]}, {"class_name": "Conv2D", "config": {"name": "conv2d_1042", "trainable": false, "dtype": "float32", "filters": 64, "kernel_size": [1, 1], "strides": [1, 1], "padding": "same", "data_format": "channels_last", "dilation_rate": [1, 1], "groups": 1, "activation": "linear", "use_bias": false, "kernel_initializer": {"module": "keras.initializers", "class_name": "GlorotUniform", "config": {"seed": null}, "registered_name": null}, "bias_initializer": {"module": "keras.initializers", "class_name": "Zeros", "config": {}, "registered_name": null}, "kernel_regularizer": null, "bias_regularizer": null, "activity_regularizer": null, "kernel_constraint": null, "bias_constraint": null}, "name": "conv2d_1042", "inbound_nodes": [[["max_pooling2d_45", 0, 0, {}]]]}, {"class_name": "BatchNormalization", "config": {"name": "batch_normalization_1042", "trainable": false, "dtype": "float32", "axis": [3], "momentum": 0.99, "epsilon": 0.001, "center": true, "scale": false, "beta_initializer": {"module": "keras.initializers", "class_name": "Zeros", "config": {}, "registered_name": null}, "gamma_initializer": {"module": "keras.initializers", "class_name": "Ones", "config": {}, "registered_name": null}, "moving_mean_initializer": {"module": "keras.initializers", "class_name": "Zeros", "config": {}, "registered_name": null}, "moving_variance_initializer": {"module": "keras.initializers", "class_name": "Ones", "config": {}, "registered_name": null}, "beta_regularizer": null, "gamma_regularizer": null, "beta_constraint": null, "gamma_constraint": null}, "name": "batch_normalization_1042", "inbound_nodes": [[["conv2d_1042", 0, 0, {}]]]}, {"class_name": "Activation", "config": {"name": "activation_1042", "trainable": false, "dtype": "float32", "activation": "relu"}, "name": "activation_1042", "inbound_nodes": [[["batch_normalization_1042", 0, 0, {}]]]}, {"class_name": "Conv2D", "config": {"name": "conv2d_1040", "trainable": false, "dtype": "float32", "filters": 48, "kernel_size": [1, 1], "strides": [1, 1], "padding": "same", "data_format": "channels_last", "dilation_rate": [1, 1], "groups": 1, "activation": "linear", "use_bias": false, "kernel_initializer": {"module": "keras.initializers", "class_name": "GlorotUniform", "config": {"seed": null}, "registered_name": null}, "bias_initializer": {"module": "keras.initializers", "class_name": "Zeros", "config": {}, "registered_name": null}, "kernel_regularizer": null, "bias_regularizer": null, "activity_regularizer": null, "kernel_constraint": null, "bias_constraint": null}, "name": "conv2d_1040", "inbound_nodes": [[["max_pooling2d_45", 0, 0, {}]]]}, {"class_name": "Conv2D", "config": {"name": "conv2d_1043", "trainable": false, "dtype": "float32", "filters": 96, "kernel_size": [3, 3], "strides": [1, 1], "padding": "same", "data_format": "channels_last", "dilation_rate": [1, 1], "groups": 1, "activation": "linear", "use_bias": false, "kernel_initializer": {"module": "keras.initializers", "class_name": "GlorotUniform", "config": {"seed": null}, "registered_name": null}, "bias_initializer": {"module": "keras.initializers", "class_name": "Zeros", "config": {}, "registered_name": null}, "kernel_regularizer": null, "bias_regularizer": null, "activity_regularizer": null, "kernel_constraint": null, "bias_constraint": null}, "name": "conv2d_1043", "inbound_nodes": [[["activation_1042", 0, 0, {}]]]}, {"class_name": "BatchNormalization", "config": {"name": "batch_normalization_1040", "trainable": false, "dtype": "float32", "axis": [3], "momentum": 0.99, "epsilon": 0.001, "center": true, "scale": false, "beta_initializer": {"module": "keras.initializers", "class_name": "Zeros", "config": {}, "registered_name": null}, "gamma_initializer": {"module": "keras.initializers", "class_name": "Ones", "config": {}, "registered_name": null}, "moving_mean_initializer": {"module": "keras.initializers", "class_name": "Zeros", "config": {}, "registered_name": null}, "moving_variance_initializer": {"module": "keras.initializers", "class_name": "Ones", "config": {}, "registered_name": null}, "beta_regularizer": null, "gamma_regularizer": null, "beta_constraint": null, "gamma_constraint": null}, "name": "batch_normalization_1040", "inbound_nodes": [[["conv2d_1040", 0, 0, {}]]]}, {"class_name": "BatchNormalization", "config": {"name": "batch_normalization_1043", "trainable": false, "dtype": "float32", "axis": [3], "momentum": 0.99, "epsilon": 0.001, "center": true, "scale": false, "beta_initializer": {"module": "keras.initializers", "class_name": "Zeros", "config": {}, "registered_name": null}, "gamma_initializer": {"module": "keras.initializers", "class_name": "Ones", "config": {}, "registered_name": null}, "moving_mean_initializer": {"module": "keras.initializers", "class_name": "Zeros", "config": {}, "registered_name": null}, "moving_variance_initializer": {"module": "keras.initializers", "class_name": "Ones", "config": {}, "registered_name": null}, "beta_regularizer": null, "gamma_regularizer": null, "beta_constraint": null, "gamma_constraint": null}, "name": "batch_normalization_1043", "inbound_nodes": [[["conv2d_1043", 0, 0, {}]]]}, {"class_name": "Activation", "config": {"name": "activation_1040", "trainable": false, "dtype": "float32", "activation": "relu"}, "name": "activation_1040", "inbound_nodes": [[["batch_normalization_1040", 0, 0, {}]]]}, {"class_name": "Activation", "config": {"name": "activation_1043", "trainable": false, "dtype": "float32", "activation": "relu"}, "name": "activation_1043", "inbound_nodes": [[["batch_normalization_1043", 0, 0, {}]]]}, {"class_name": "AveragePooling2D", "config": {"name": "average_pooling2d_99", "trainable": false, "dtype": "float32", "pool_size": [3, 3], "padding": "same", "strides": [1, 1], "data_format": "channels_last"}, "name": "average_pooling2d_99", "inbound_nodes": [[["max_pooling2d_45", 0, 0, {}]]]}, {"class_name": "Conv2D", "config": {"name": "conv2d_1039", "trainable": false, "dtype": "float32", "filters": 64, "kernel_size": [1, 1], "strides": [1, 1], "padding": "same", "data_format": "channels_last", "dilation_rate": [1, 1], "groups": 1, "activation": "linear", "use_bias": false, "kernel_initializer": {"module": "keras.initializers", "class_name": "GlorotUniform", "config": {"seed": null}, "registered_name": null}, "bias_initializer": {"module": "keras.initializers", "class_name": "Zeros", "config": {}, "registered_name": null}, "kernel_regularizer": null, "bias_regularizer": null, "activity_regularizer": null, "kernel_constraint": null, "bias_constraint": null}, "name": "conv2d_1039", "inbound_nodes": [[["max_pooling2d_45", 0, 0, {}]]]}, {"class_name": "Conv2D", "config": {"name": "conv2d_1041", "trainable": false, "dtype": "float32", "filters": 64, "kernel_size": [5, 5], "strides": [1, 1], "padding": "same", "data_format": "channels_last", "dilation_rate": [1, 1], "groups": 1, "activation": "linear", "use_bias": false, "kernel_initializer": {"module": "keras.initializers", "class_name": "GlorotUniform", "config": {"seed": null}, "registered_name": null}, "bias_initializer": {"module": "keras.initializers", "class_name": "Zeros", "config": {}, "registered_name": null}, "kernel_regularizer": null, "bias_regularizer": null, "activity_regularizer": null, "kernel_constraint": null, "bias_constraint": null}, "name": "conv2d_1041", "inbound_nodes": [[["activation_1040", 0, 0, {}]]]}, {"class_name": "Conv2D", "config": {"name": "conv2d_1044", "trainable": false, "dtype": "float32", "filters": 96, "kernel_size": [3, 3], "strides": [1, 1], "padding": "same", "data_format": "channels_last", "dilation_rate": [1, 1], "groups": 1, "activation": "linear", "use_bias": false, "kernel_initializer": {"module": "keras.initializers", "class_name": "GlorotUniform", "config": {"seed": null}, "registered_name": null}, "bias_initializer": {"module": "keras.initializers", "class_name": "Zeros", "config": {}, "registered_name": null}, "kernel_regularizer": null, "bias_regularizer": null, "activity_regularizer": null, "kernel_constraint": null, "bias_constraint": null}, "name": "conv2d_1044", "inbound_nodes": [[["activation_1043", 0, 0, {}]]]}, {"class_name": "Conv2D", "config": {"name": "conv2d_1045", "trainable": false, "dtype": "float32", "filters": 32, "kernel_size": [1, 1], "strides": [1, 1], "padding": "same", "data_format": "channels_last", "dilation_rate": [1, 1], "groups": 1, "activation": "linear", "use_bias": false, "kernel_initializer": {"module": "keras.initializers", "class_name": "GlorotUniform", "config": {"seed": null}, "registered_name": null}, "bias_initializer": {"module": "keras.initializers", "class_name": "Zeros", "config": {}, "registered_name": null}, "kernel_regularizer": null, "bias_regularizer": null, "activity_regularizer": null, "kernel_constraint": null, "bias_constraint": null}, "name": "conv2d_1045", "inbound_nodes": [[["average_pooling2d_99", 0, 0, {}]]]}, {"class_name": "BatchNormalization", "config": {"name": "batch_normalization_1039", "trainable": false, "dtype": "float32", "axis": [3], "momentum": 0.99, "epsilon": 0.001, "center": true, "scale": false, "beta_initializer": {"module": "keras.initializers", "class_name": "Zeros", "config": {}, "registered_name": null}, "gamma_initializer": {"module": "keras.initializers", "class_name": "Ones", "config": {}, "registered_name": null}, "moving_mean_initializer": {"module": "keras.initializers", "class_name": "Zeros", "config": {}, "registered_name": null}, "moving_variance_initializer": {"module": "keras.initializers", "class_name": "Ones", "config": {}, "registered_name": null}, "beta_regularizer": null, "gamma_regularizer": null, "beta_constraint": null, "gamma_constraint": null}, "name": "batch_normalization_1039", "inbound_nodes": [[["conv2d_1039", 0, 0, {}]]]}, {"class_name": "BatchNormalization", "config": {"name": "batch_normalization_1041", "trainable": false, "dtype": "float32", "axis": [3], "momentum": 0.99, "epsilon": 0.001, "center": true, "scale": false, "beta_initializer": {"module": "keras.initializers", "class_name": "Zeros", "config": {}, "registered_name": null}, "gamma_initializer": {"module": "keras.initializers", "class_name": "Ones", "config": {}, "registered_name": null}, "moving_mean_initializer": {"module": "keras.initializers", "class_name": "Zeros", "config": {}, "registered_name": null}, "moving_variance_initializer": {"module": "keras.initializers", "class_name": "Ones", "config": {}, "registered_name": null}, "beta_regularizer": null, "gamma_regularizer": null, "beta_constraint": null, "gamma_constraint": null}, "name": "batch_normalization_1041", "inbound_nodes": [[["conv2d_1041", 0, 0, {}]]]}, {"class_name": "BatchNormalization", "config": {"name": "batch_normalization_1044", "trainable": false, "dtype": "float32", "axis": [3], "momentum": 0.99, "epsilon": 0.001, "center": true, "scale": false, "beta_initializer": {"module": "keras.initializers", "class_name": "Zeros", "config": {}, "registered_name": null}, "gamma_initializer": {"module": "keras.initializers", "class_name": "Ones", "config": {}, "registered_name": null}, "moving_mean_initializer": {"module": "keras.initializers", "class_name": "Zeros", "config": {}, "registered_name": null}, "moving_variance_initializer": {"module": "keras.initializers", "class_name": "Ones", "config": {}, "registered_name": null}, "beta_regularizer": null, "gamma_regularizer": null, "beta_constraint": null, "gamma_constraint": null}, "name": "batch_normalization_1044", "inbound_nodes": [[["conv2d_1044", 0, 0, {}]]]}, {"class_name": "BatchNormalization", "config": {"name": "batch_normalization_1045", "trainable": false, "dtype": "float32", "axis": [3], "momentum": 0.99, "epsilon": 0.001, "center": true, "scale": false, "beta_initializer": {"module": "keras.initializers", "class_name": "Zeros", "config": {}, "registered_name": null}, "gamma_initializer": {"module": "keras.initializers", "class_name": "Ones", "config": {}, "registered_name": null}, "moving_mean_initializer": {"module": "keras.initializers", "class_name": "Zeros", "config": {}, "registered_name": null}, "moving_variance_initializer": {"module": "keras.initializers", "class_name": "Ones", "config": {}, "registered_name": null}, "beta_regularizer": null, "gamma_regularizer": null, "beta_constraint": null, "gamma_constraint": null}, "name": "batch_normalization_1045", "inbound_nodes": [[["conv2d_1045", 0, 0, {}]]]}, {"class_name": "Activation", "config": {"name": "activation_1039", "trainable": false, "dtype": "float32", "activation": "relu"}, "name": "activation_1039", "inbound_nodes": [[["batch_normalization_1039", 0, 0, {}]]]}, {"class_name": "Activation", "config": {"name": "activation_1041", "trainable": false, "dtype": "float32", "activation": "relu"}, "name": "activation_1041", "inbound_nodes": [[["batch_normalization_1041", 0, 0, {}]]]}, {"class_name": "Activation", "config": {"name": "activation_1044", "trainable": false, "dtype": "float32", "activation": "relu"}, "name": "activation_1044", "inbound_nodes": [[["batch_normalization_1044", 0, 0, {}]]]}, {"class_name": "Activation", "config": {"name": "activation_1045", "trainable": false, "dtype": "float32", "activation": "relu"}, "name": "activation_1045", "inbound_nodes": [[["batch_normalization_1045", 0, 0, {}]]]}, {"class_name": "Concatenate", "config": {"name": "mixed0", "trainable": false, "dtype": "float32", "axis": 3}, "name": "mixed0", "inbound_nodes": [[["activation_1039", 0, 0, {}], ["activation_1041", 0, 0, {}], ["activation_1044", 0, 0, {}], ["activation_1045", 0, 0, {}]]]}, {"class_name": "Conv2D", "config": {"name": "conv2d_1049", "trainable": false, "dtype": "float32", "filters": 64, "kernel_size": [1, 1], "strides": [1, 1], "padding": "same", "data_format": "channels_last", "dilation_rate": [1, 1], "groups": 1, "activation": "linear", "use_bias": false, "kernel_initializer": {"module": "keras.initializers", "class_name": "GlorotUniform", "config": {"seed": null}, "registered_name": null}, "bias_initializer": {"module": "keras.initializers", "class_name": "Zeros", "config": {}, "registered_name": null}, "kernel_regularizer": null, "bias_regularizer": null, "activity_regularizer": null, "kernel_constraint": null, "bias_constraint": null}, "name": "conv2d_1049", "inbound_nodes": [[["mixed0", 0, 0, {}]]]}, {"class_name": "BatchNormalization", "config": {"name": "batch_normalization_1049", "trainable": false, "dtype": "float32", "axis": [3], "momentum": 0.99, "epsilon": 0.001, "center": true, "scale": false, "beta_initializer": {"module": "keras.initializers", "class_name": "Zeros", "config": {}, "registered_name": null}, "gamma_initializer": {"module": "keras.initializers", "class_name": "Ones", "config": {}, "registered_name": null}, "moving_mean_initializer": {"module": "keras.initializers", "class_name": "Zeros", "config": {}, "registered_name": null}, "moving_variance_initializer": {"module": "keras.initializers", "class_name": "Ones", "config": {}, "registered_name": null}, "beta_regularizer": null, "gamma_regularizer": null, "beta_constraint": null, "gamma_constraint": null}, "name": "batch_normalization_1049", "inbound_nodes": [[["conv2d_1049", 0, 0, {}]]]}, {"class_name": "Activation", "config": {"name": "activation_1049", "trainable": false, "dtype": "float32", "activation": "relu"}, "name": "activation_1049", "inbound_nodes": [[["batch_normalization_1049", 0, 0, {}]]]}, {"class_name": "Conv2D", "config": {"name": "conv2d_1047", "trainable": false, "dtype": "float32", "filters": 48, "kernel_size": [1, 1], "strides": [1, 1], "padding": "same", "data_format": "channels_last", "dilation_rate": [1, 1], "groups": 1, "activation": "linear", "use_bias": false, "kernel_initializer": {"module": "keras.initializers", "class_name": "GlorotUniform", "config": {"seed": null}, "registered_name": null}, "bias_initializer": {"module": "keras.initializers", "class_name": "Zeros", "config": {}, "registered_name": null}, "kernel_regularizer": null, "bias_regularizer": null, "activity_regularizer": null, "kernel_constraint": null, "bias_constraint": null}, "name": "conv2d_1047", "inbound_nodes": [[["mixed0", 0, 0, {}]]]}, {"class_name": "Conv2D", "config": {"name": "conv2d_1050", "trainable": false, "dtype": "float32", "filters": 96, "kernel_size": [3, 3], "strides": [1, 1], "padding": "same", "data_format": "channels_last", "dilation_rate": [1, 1], "groups": 1, "activation": "linear", "use_bias": false, "kernel_initializer": {"module": "keras.initializers", "class_name": "GlorotUniform", "config": {"seed": null}, "registered_name": null}, "bias_initializer": {"module": "keras.initializers", "class_name": "Zeros", "config": {}, "registered_name": null}, "kernel_regularizer": null, "bias_regularizer": null, "activity_regularizer": null, "kernel_constraint": null, "bias_constraint": null}, "name": "conv2d_1050", "inbound_nodes": [[["activation_1049", 0, 0, {}]]]}, {"class_name": "BatchNormalization", "config": {"name": "batch_normalization_1047", "trainable": false, "dtype": "float32", "axis": [3], "momentum": 0.99, "epsilon": 0.001, "center": true, "scale": false, "beta_initializer": {"module": "keras.initializers", "class_name": "Zeros", "config": {}, "registered_name": null}, "gamma_initializer": {"module": "keras.initializers", "class_name": "Ones", "config": {}, "registered_name": null}, "moving_mean_initializer": {"module": "keras.initializers", "class_name": "Zeros", "config": {}, "registered_name": null}, "moving_variance_initializer": {"module": "keras.initializers", "class_name": "Ones", "config": {}, "registered_name": null}, "beta_regularizer": null, "gamma_regularizer": null, "beta_constraint": null, "gamma_constraint": null}, "name": "batch_normalization_1047", "inbound_nodes": [[["conv2d_1047", 0, 0, {}]]]}, {"class_name": "BatchNormalization", "config": {"name": "batch_normalization_1050", "trainable": false, "dtype": "float32", "axis": [3], "momentum": 0.99, "epsilon": 0.001, "center": true, "scale": false, "beta_initializer": {"module": "keras.initializers", "class_name": "Zeros", "config": {}, "registered_name": null}, "gamma_initializer": {"module": "keras.initializers", "class_name": "Ones", "config": {}, "registered_name": null}, "moving_mean_initializer": {"module": "keras.initializers", "class_name": "Zeros", "config": {}, "registered_name": null}, "moving_variance_initializer": {"module": "keras.initializers", "class_name": "Ones", "config": {}, "registered_name": null}, "beta_regularizer": null, "gamma_regularizer": null, "beta_constraint": null, "gamma_constraint": null}, "name": "batch_normalization_1050", "inbound_nodes": [[["conv2d_1050", 0, 0, {}]]]}, {"class_name": "Activation", "config": {"name": "activation_1047", "trainable": false, "dtype": "float32", "activation": "relu"}, "name": "activation_1047", "inbound_nodes": [[["batch_normalization_1047", 0, 0, {}]]]}, {"class_name": "Activation", "config": {"name": "activation_1050", "trainable": false, "dtype": "float32", "activation": "relu"}, "name": "activation_1050", "inbound_nodes": [[["batch_normalization_1050", 0, 0, {}]]]}, {"class_name": "AveragePooling2D", "config": {"name": "average_pooling2d_100", "trainable": false, "dtype": "float32", "pool_size": [3, 3], "padding": "same", "strides": [1, 1], "data_format": "channels_last"}, "name": "average_pooling2d_100", "inbound_nodes": [[["mixed0", 0, 0, {}]]]}, {"class_name": "Conv2D", "config": {"name": "conv2d_1046", "trainable": false, "dtype": "float32", "filters": 64, "kernel_size": [1, 1], "strides": [1, 1], "padding": "same", "data_format": "channels_last", "dilation_rate": [1, 1], "groups": 1, "activation": "linear", "use_bias": false, "kernel_initializer": {"module": "keras.initializers", "class_name": "GlorotUniform", "config": {"seed": null}, "registered_name": null}, "bias_initializer": {"module": "keras.initializers", "class_name": "Zeros", "config": {}, "registered_name": null}, "kernel_regularizer": null, "bias_regularizer": null, "activity_regularizer": null, "kernel_constraint": null, "bias_constraint": null}, "name": "conv2d_1046", "inbound_nodes": [[["mixed0", 0, 0, {}]]]}, {"class_name": "Conv2D", "config": {"name": "conv2d_1048", "trainable": false, "dtype": "float32", "filters": 64, "kernel_size": [5, 5], "strides": [1, 1], "padding": "same", "data_format": "channels_last", "dilation_rate": [1, 1], "groups": 1, "activation": "linear", "use_bias": false, "kernel_initializer": {"module": "keras.initializers", "class_name": "GlorotUniform", "config": {"seed": null}, "registered_name": null}, "bias_initializer": {"module": "keras.initializers", "class_name": "Zeros", "config": {}, "registered_name": null}, "kernel_regularizer": null, "bias_regularizer": null, "activity_regularizer": null, "kernel_constraint": null, "bias_constraint": null}, "name": "conv2d_1048", "inbound_nodes": [[["activation_1047", 0, 0, {}]]]}, {"class_name": "Conv2D", "config": {"name": "conv2d_1051", "trainable": false, "dtype": "float32", "filters": 96, "kernel_size": [3, 3], "strides": [1, 1], "padding": "same", "data_format": "channels_last", "dilation_rate": [1, 1], "groups": 1, "activation": "linear", "use_bias": false, "kernel_initializer": {"module": "keras.initializers", "class_name": "GlorotUniform", "config": {"seed": null}, "registered_name": null}, "bias_initializer": {"module": "keras.initializers", "class_name": "Zeros", "config": {}, "registered_name": null}, "kernel_regularizer": null, "bias_regularizer": null, "activity_regularizer": null, "kernel_constraint": null, "bias_constraint": null}, "name": "conv2d_1051", "inbound_nodes": [[["activation_1050", 0, 0, {}]]]}, {"class_name": "Conv2D", "config": {"name": "conv2d_1052", "trainable": false, "dtype": "float32", "filters": 64, "kernel_size": [1, 1], "strides": [1, 1], "padding": "same", "data_format": "channels_last", "dilation_rate": [1, 1], "groups": 1, "activation": "linear", "use_bias": false, "kernel_initializer": {"module": "keras.initializers", "class_name": "GlorotUniform", "config": {"seed": null}, "registered_name": null}, "bias_initializer": {"module": "keras.initializers", "class_name": "Zeros", "config": {}, "registered_name": null}, "kernel_regularizer": null, "bias_regularizer": null, "activity_regularizer": null, "kernel_constraint": null, "bias_constraint": null}, "name": "conv2d_1052", "inbound_nodes": [[["average_pooling2d_100", 0, 0, {}]]]}, {"class_name": "BatchNormalization", "config": {"name": "batch_normalization_1046", "trainable": false, "dtype": "float32", "axis": [3], "momentum": 0.99, "epsilon": 0.001, "center": true, "scale": false, "beta_initializer": {"module": "keras.initializers", "class_name": "Zeros", "config": {}, "registered_name": null}, "gamma_initializer": {"module": "keras.initializers", "class_name": "Ones", "config": {}, "registered_name": null}, "moving_mean_initializer": {"module": "keras.initializers", "class_name": "Zeros", "config": {}, "registered_name": null}, "moving_variance_initializer": {"module": "keras.initializers", "class_name": "Ones", "config": {}, "registered_name": null}, "beta_regularizer": null, "gamma_regularizer": null, "beta_constraint": null, "gamma_constraint": null}, "name": "batch_normalization_1046", "inbound_nodes": [[["conv2d_1046", 0, 0, {}]]]}, {"class_name": "BatchNormalization", "config": {"name": "batch_normalization_1048", "trainable": false, "dtype": "float32", "axis": [3], "momentum": 0.99, "epsilon": 0.001, "center": true, "scale": false, "beta_initializer": {"module": "keras.initializers", "class_name": "Zeros", "config": {}, "registered_name": null}, "gamma_initializer": {"module": "keras.initializers", "class_name": "Ones", "config": {}, "registered_name": null}, "moving_mean_initializer": {"module": "keras.initializers", "class_name": "Zeros", "config": {}, "registered_name": null}, "moving_variance_initializer": {"module": "keras.initializers", "class_name": "Ones", "config": {}, "registered_name": null}, "beta_regularizer": null, "gamma_regularizer": null, "beta_constraint": null, "gamma_constraint": null}, "name": "batch_normalization_1048", "inbound_nodes": [[["conv2d_1048", 0, 0, {}]]]}, {"class_name": "BatchNormalization", "config": {"name": "batch_normalization_1051", "trainable": false, "dtype": "float32", "axis": [3], "momentum": 0.99, "epsilon": 0.001, "center": true, "scale": false, "beta_initializer": {"module": "keras.initializers", "class_name": "Zeros", "config": {}, "registered_name": null}, "gamma_initializer": {"module": "keras.initializers", "class_name": "Ones", "config": {}, "registered_name": null}, "moving_mean_initializer": {"module": "keras.initializers", "class_name": "Zeros", "config": {}, "registered_name": null}, "moving_variance_initializer": {"module": "keras.initializers", "class_name": "Ones", "config": {}, "registered_name": null}, "beta_regularizer": null, "gamma_regularizer": null, "beta_constraint": null, "gamma_constraint": null}, "name": "batch_normalization_1051", "inbound_nodes": [[["conv2d_1051", 0, 0, {}]]]}, {"class_name": "BatchNormalization", "config": {"name": "batch_normalization_1052", "trainable": false, "dtype": "float32", "axis": [3], "momentum": 0.99, "epsilon": 0.001, "center": true, "scale": false, "beta_initializer": {"module": "keras.initializers", "class_name": "Zeros", "config": {}, "registered_name": null}, "gamma_initializer": {"module": "keras.initializers", "class_name": "Ones", "config": {}, "registered_name": null}, "moving_mean_initializer": {"module": "keras.initializers", "class_name": "Zeros", "config": {}, "registered_name": null}, "moving_variance_initializer": {"module": "keras.initializers", "class_name": "Ones", "config": {}, "registered_name": null}, "beta_regularizer": null, "gamma_regularizer": null, "beta_constraint": null, "gamma_constraint": null}, "name": "batch_normalization_1052", "inbound_nodes": [[["conv2d_1052", 0, 0, {}]]]}, {"class_name": "Activation", "config": {"name": "activation_1046", "trainable": false, "dtype": "float32", "activation": "relu"}, "name": "activation_1046", "inbound_nodes": [[["batch_normalization_1046", 0, 0, {}]]]}, {"class_name": "Activation", "config": {"name": "activation_1048", "trainable": false, "dtype": "float32", "activation": "relu"}, "name": "activation_1048", "inbound_nodes": [[["batch_normalization_1048", 0, 0, {}]]]}, {"class_name": "Activation", "config": {"name": "activation_1051", "trainable": false, "dtype": "float32", "activation": "relu"}, "name": "activation_1051", "inbound_nodes": [[["batch_normalization_1051", 0, 0, {}]]]}, {"class_name": "Activation", "config": {"name": "activation_1052", "trainable": false, "dtype": "float32", "activation": "relu"}, "name": "activation_1052", "inbound_nodes": [[["batch_normalization_1052", 0, 0, {}]]]}, {"class_name": "Concatenate", "config": {"name": "mixed1", "trainable": false, "dtype": "float32", "axis": 3}, "name": "mixed1", "inbound_nodes": [[["activation_1046", 0, 0, {}], ["activation_1048", 0, 0, {}], ["activation_1051", 0, 0, {}], ["activation_1052", 0, 0, {}]]]}, {"class_name": "Conv2D", "config": {"name": "conv2d_1056", "trainable": false, "dtype": "float32", "filters": 64, "kernel_size": [1, 1], "strides": [1, 1], "padding": "same", "data_format": "channels_last", "dilation_rate": [1, 1], "groups": 1, "activation": "linear", "use_bias": false, "kernel_initializer": {"module": "keras.initializers", "class_name": "GlorotUniform", "config": {"seed": null}, "registered_name": null}, "bias_initializer": {"module": "keras.initializers", "class_name": "Zeros", "config": {}, "registered_name": null}, "kernel_regularizer": null, "bias_regularizer": null, "activity_regularizer": null, "kernel_constraint": null, "bias_constraint": null}, "name": "conv2d_1056", "inbound_nodes": [[["mixed1", 0, 0, {}]]]}, {"class_name": "BatchNormalization", "config": {"name": "batch_normalization_1056", "trainable": false, "dtype": "float32", "axis": [3], "momentum": 0.99, "epsilon": 0.001, "center": true, "scale": false, "beta_initializer": {"module": "keras.initializers", "class_name": "Zeros", "config": {}, "registered_name": null}, "gamma_initializer": {"module": "keras.initializers", "class_name": "Ones", "config": {}, "registered_name": null}, "moving_mean_initializer": {"module": "keras.initializers", "class_name": "Zeros", "config": {}, "registered_name": null}, "moving_variance_initializer": {"module": "keras.initializers", "class_name": "Ones", "config": {}, "registered_name": null}, "beta_regularizer": null, "gamma_regularizer": null, "beta_constraint": null, "gamma_constraint": null}, "name": "batch_normalization_1056", "inbound_nodes": [[["conv2d_1056", 0, 0, {}]]]}, {"class_name": "Activation", "config": {"name": "activation_1056", "trainable": false, "dtype": "float32", "activation": "relu"}, "name": "activation_1056", "inbound_nodes": [[["batch_normalization_1056", 0, 0, {}]]]}, {"class_name": "Conv2D", "config": {"name": "conv2d_1054", "trainable": false, "dtype": "float32", "filters": 48, "kernel_size": [1, 1], "strides": [1, 1], "padding": "same", "data_format": "channels_last", "dilation_rate": [1, 1], "groups": 1, "activation": "linear", "use_bias": false, "kernel_initializer": {"module": "keras.initializers", "class_name": "GlorotUniform", "config": {"seed": null}, "registered_name": null}, "bias_initializer": {"module": "keras.initializers", "class_name": "Zeros", "config": {}, "registered_name": null}, "kernel_regularizer": null, "bias_regularizer": null, "activity_regularizer": null, "kernel_constraint": null, "bias_constraint": null}, "name": "conv2d_1054", "inbound_nodes": [[["mixed1", 0, 0, {}]]]}, {"class_name": "Conv2D", "config": {"name": "conv2d_1057", "trainable": false, "dtype": "float32", "filters": 96, "kernel_size": [3, 3], "strides": [1, 1], "padding": "same", "data_format": "channels_last", "dilation_rate": [1, 1], "groups": 1, "activation": "linear", "use_bias": false, "kernel_initializer": {"module": "keras.initializers", "class_name": "GlorotUniform", "config": {"seed": null}, "registered_name": null}, "bias_initializer": {"module": "keras.initializers", "class_name": "Zeros", "config": {}, "registered_name": null}, "kernel_regularizer": null, "bias_regularizer": null, "activity_regularizer": null, "kernel_constraint": null, "bias_constraint": null}, "name": "conv2d_1057", "inbound_nodes": [[["activation_1056", 0, 0, {}]]]}, {"class_name": "BatchNormalization", "config": {"name": "batch_normalization_1054", "trainable": false, "dtype": "float32", "axis": [3], "momentum": 0.99, "epsilon": 0.001, "center": true, "scale": false, "beta_initializer": {"module": "keras.initializers", "class_name": "Zeros", "config": {}, "registered_name": null}, "gamma_initializer": {"module": "keras.initializers", "class_name": "Ones", "config": {}, "registered_name": null}, "moving_mean_initializer": {"module": "keras.initializers", "class_name": "Zeros", "config": {}, "registered_name": null}, "moving_variance_initializer": {"module": "keras.initializers", "class_name": "Ones", "config": {}, "registered_name": null}, "beta_regularizer": null, "gamma_regularizer": null, "beta_constraint": null, "gamma_constraint": null}, "name": "batch_normalization_1054", "inbound_nodes": [[["conv2d_1054", 0, 0, {}]]]}, {"class_name": "BatchNormalization", "config": {"name": "batch_normalization_1057", "trainable": false, "dtype": "float32", "axis": [3], "momentum": 0.99, "epsilon": 0.001, "center": true, "scale": false, "beta_initializer": {"module": "keras.initializers", "class_name": "Zeros", "config": {}, "registered_name": null}, "gamma_initializer": {"module": "keras.initializers", "class_name": "Ones", "config": {}, "registered_name": null}, "moving_mean_initializer": {"module": "keras.initializers", "class_name": "Zeros", "config": {}, "registered_name": null}, "moving_variance_initializer": {"module": "keras.initializers", "class_name": "Ones", "config": {}, "registered_name": null}, "beta_regularizer": null, "gamma_regularizer": null, "beta_constraint": null, "gamma_constraint": null}, "name": "batch_normalization_1057", "inbound_nodes": [[["conv2d_1057", 0, 0, {}]]]}, {"class_name": "Activation", "config": {"name": "activation_1054", "trainable": false, "dtype": "float32", "activation": "relu"}, "name": "activation_1054", "inbound_nodes": [[["batch_normalization_1054", 0, 0, {}]]]}, {"class_name": "Activation", "config": {"name": "activation_1057", "trainable": false, "dtype": "float32", "activation": "relu"}, "name": "activation_1057", "inbound_nodes": [[["batch_normalization_1057", 0, 0, {}]]]}, {"class_name": "AveragePooling2D", "config": {"name": "average_pooling2d_101", "trainable": false, "dtype": "float32", "pool_size": [3, 3], "padding": "same", "strides": [1, 1], "data_format": "channels_last"}, "name": "average_pooling2d_101", "inbound_nodes": [[["mixed1", 0, 0, {}]]]}, {"class_name": "Conv2D", "config": {"name": "conv2d_1053", "trainable": false, "dtype": "float32", "filters": 64, "kernel_size": [1, 1], "strides": [1, 1], "padding": "same", "data_format": "channels_last", "dilation_rate": [1, 1], "groups": 1, "activation": "linear", "use_bias": false, "kernel_initializer": {"module": "keras.initializers", "class_name": "GlorotUniform", "config": {"seed": null}, "registered_name": null}, "bias_initializer": {"module": "keras.initializers", "class_name": "Zeros", "config": {}, "registered_name": null}, "kernel_regularizer": null, "bias_regularizer": null, "activity_regularizer": null, "kernel_constraint": null, "bias_constraint": null}, "name": "conv2d_1053", "inbound_nodes": [[["mixed1", 0, 0, {}]]]}, {"class_name": "Conv2D", "config": {"name": "conv2d_1055", "trainable": false, "dtype": "float32", "filters": 64, "kernel_size": [5, 5], "strides": [1, 1], "padding": "same", "data_format": "channels_last", "dilation_rate": [1, 1], "groups": 1, "activation": "linear", "use_bias": false, "kernel_initializer": {"module": "keras.initializers", "class_name": "GlorotUniform", "config": {"seed": null}, "registered_name": null}, "bias_initializer": {"module": "keras.initializers", "class_name": "Zeros", "config": {}, "registered_name": null}, "kernel_regularizer": null, "bias_regularizer": null, "activity_regularizer": null, "kernel_constraint": null, "bias_constraint": null}, "name": "conv2d_1055", "inbound_nodes": [[["activation_1054", 0, 0, {}]]]}, {"class_name": "Conv2D", "config": {"name": "conv2d_1058", "trainable": false, "dtype": "float32", "filters": 96, "kernel_size": [3, 3], "strides": [1, 1], "padding": "same", "data_format": "channels_last", "dilation_rate": [1, 1], "groups": 1, "activation": "linear", "use_bias": false, "kernel_initializer": {"module": "keras.initializers", "class_name": "GlorotUniform", "config": {"seed": null}, "registered_name": null}, "bias_initializer": {"module": "keras.initializers", "class_name": "Zeros", "config": {}, "registered_name": null}, "kernel_regularizer": null, "bias_regularizer": null, "activity_regularizer": null, "kernel_constraint": null, "bias_constraint": null}, "name": "conv2d_1058", "inbound_nodes": [[["activation_1057", 0, 0, {}]]]}, {"class_name": "Conv2D", "config": {"name": "conv2d_1059", "trainable": false, "dtype": "float32", "filters": 64, "kernel_size": [1, 1], "strides": [1, 1], "padding": "same", "data_format": "channels_last", "dilation_rate": [1, 1], "groups": 1, "activation": "linear", "use_bias": false, "kernel_initializer": {"module": "keras.initializers", "class_name": "GlorotUniform", "config": {"seed": null}, "registered_name": null}, "bias_initializer": {"module": "keras.initializers", "class_name": "Zeros", "config": {}, "registered_name": null}, "kernel_regularizer": null, "bias_regularizer": null, "activity_regularizer": null, "kernel_constraint": null, "bias_constraint": null}, "name": "conv2d_1059", "inbound_nodes": [[["average_pooling2d_101", 0, 0, {}]]]}, {"class_name": "BatchNormalization", "config": {"name": "batch_normalization_1053", "trainable": false, "dtype": "float32", "axis": [3], "momentum": 0.99, "epsilon": 0.001, "center": true, "scale": false, "beta_initializer": {"module": "keras.initializers", "class_name": "Zeros", "config": {}, "registered_name": null}, "gamma_initializer": {"module": "keras.initializers", "class_name": "Ones", "config": {}, "registered_name": null}, "moving_mean_initializer": {"module": "keras.initializers", "class_name": "Zeros", "config": {}, "registered_name": null}, "moving_variance_initializer": {"module": "keras.initializers", "class_name": "Ones", "config": {}, "registered_name": null}, "beta_regularizer": null, "gamma_regularizer": null, "beta_constraint": null, "gamma_constraint": null}, "name": "batch_normalization_1053", "inbound_nodes": [[["conv2d_1053", 0, 0, {}]]]}, {"class_name": "BatchNormalization", "config": {"name": "batch_normalization_1055", "trainable": false, "dtype": "float32", "axis": [3], "momentum": 0.99, "epsilon": 0.001, "center": true, "scale": false, "beta_initializer": {"module": "keras.initializers", "class_name": "Zeros", "config": {}, "registered_name": null}, "gamma_initializer": {"module": "keras.initializers", "class_name": "Ones", "config": {}, "registered_name": null}, "moving_mean_initializer": {"module": "keras.initializers", "class_name": "Zeros", "config": {}, "registered_name": null}, "moving_variance_initializer": {"module": "keras.initializers", "class_name": "Ones", "config": {}, "registered_name": null}, "beta_regularizer": null, "gamma_regularizer": null, "beta_constraint": null, "gamma_constraint": null}, "name": "batch_normalization_1055", "inbound_nodes": [[["conv2d_1055", 0, 0, {}]]]}, {"class_name": "BatchNormalization", "config": {"name": "batch_normalization_1058", "trainable": false, "dtype": "float32", "axis": [3], "momentum": 0.99, "epsilon": 0.001, "center": true, "scale": false, "beta_initializer": {"module": "keras.initializers", "class_name": "Zeros", "config": {}, "registered_name": null}, "gamma_initializer": {"module": "keras.initializers", "class_name": "Ones", "config": {}, "registered_name": null}, "moving_mean_initializer": {"module": "keras.initializers", "class_name": "Zeros", "config": {}, "registered_name": null}, "moving_variance_initializer": {"module": "keras.initializers", "class_name": "Ones", "config": {}, "registered_name": null}, "beta_regularizer": null, "gamma_regularizer": null, "beta_constraint": null, "gamma_constraint": null}, "name": "batch_normalization_1058", "inbound_nodes": [[["conv2d_1058", 0, 0, {}]]]}, {"class_name": "BatchNormalization", "config": {"name": "batch_normalization_1059", "trainable": false, "dtype": "float32", "axis": [3], "momentum": 0.99, "epsilon": 0.001, "center": true, "scale": false, "beta_initializer": {"module": "keras.initializers", "class_name": "Zeros", "config": {}, "registered_name": null}, "gamma_initializer": {"module": "keras.initializers", "class_name": "Ones", "config": {}, "registered_name": null}, "moving_mean_initializer": {"module": "keras.initializers", "class_name": "Zeros", "config": {}, "registered_name": null}, "moving_variance_initializer": {"module": "keras.initializers", "class_name": "Ones", "config": {}, "registered_name": null}, "beta_regularizer": null, "gamma_regularizer": null, "beta_constraint": null, "gamma_constraint": null}, "name": "batch_normalization_1059", "inbound_nodes": [[["conv2d_1059", 0, 0, {}]]]}, {"class_name": "Activation", "config": {"name": "activation_1053", "trainable": false, "dtype": "float32", "activation": "relu"}, "name": "activation_1053", "inbound_nodes": [[["batch_normalization_1053", 0, 0, {}]]]}, {"class_name": "Activation", "config": {"name": "activation_1055", "trainable": false, "dtype": "float32", "activation": "relu"}, "name": "activation_1055", "inbound_nodes": [[["batch_normalization_1055", 0, 0, {}]]]}, {"class_name": "Activation", "config": {"name": "activation_1058", "trainable": false, "dtype": "float32", "activation": "relu"}, "name": "activation_1058", "inbound_nodes": [[["batch_normalization_1058", 0, 0, {}]]]}, {"class_name": "Activation", "config": {"name": "activation_1059", "trainable": false, "dtype": "float32", "activation": "relu"}, "name": "activation_1059", "inbound_nodes": [[["batch_normalization_1059", 0, 0, {}]]]}, {"class_name": "Concatenate", "config": {"name": "mixed2", "trainable": false, "dtype": "float32", "axis": 3}, "name": "mixed2", "inbound_nodes": [[["activation_1053", 0, 0, {}], ["activation_1055", 0, 0, {}], ["activation_1058", 0, 0, {}], ["activation_1059", 0, 0, {}]]]}, {"class_name": "Conv2D", "config": {"name": "conv2d_1061", "trainable": false, "dtype": "float32", "filters": 64, "kernel_size": [1, 1], "strides": [1, 1], "padding": "same", "data_format": "channels_last", "dilation_rate": [1, 1], "groups": 1, "activation": "linear", "use_bias": false, "kernel_initializer": {"module": "keras.initializers", "class_name": "GlorotUniform", "config": {"seed": null}, "registered_name": null}, "bias_initializer": {"module": "keras.initializers", "class_name": "Zeros", "config": {}, "registered_name": null}, "kernel_regularizer": null, "bias_regularizer": null, "activity_regularizer": null, "kernel_constraint": null, "bias_constraint": null}, "name": "conv2d_1061", "inbound_nodes": [[["mixed2", 0, 0, {}]]]}, {"class_name": "BatchNormalization", "config": {"name": "batch_normalization_1061", "trainable": false, "dtype": "float32", "axis": [3], "momentum": 0.99, "epsilon": 0.001, "center": true, "scale": false, "beta_initializer": {"module": "keras.initializers", "class_name": "Zeros", "config": {}, "registered_name": null}, "gamma_initializer": {"module": "keras.initializers", "class_name": "Ones", "config": {}, "registered_name": null}, "moving_mean_initializer": {"module": "keras.initializers", "class_name": "Zeros", "config": {}, "registered_name": null}, "moving_variance_initializer": {"module": "keras.initializers", "class_name": "Ones", "config": {}, "registered_name": null}, "beta_regularizer": null, "gamma_regularizer": null, "beta_constraint": null, "gamma_constraint": null}, "name": "batch_normalization_1061", "inbound_nodes": [[["conv2d_1061", 0, 0, {}]]]}, {"class_name": "Activation", "config": {"name": "activation_1061", "trainable": false, "dtype": "float32", "activation": "relu"}, "name": "activation_1061", "inbound_nodes": [[["batch_normalization_1061", 0, 0, {}]]]}, {"class_name": "Conv2D", "config": {"name": "conv2d_1062", "trainable": false, "dtype": "float32", "filters": 96, "kernel_size": [3, 3], "strides": [1, 1], "padding": "same", "data_format": "channels_last", "dilation_rate": [1, 1], "groups": 1, "activation": "linear", "use_bias": false, "kernel_initializer": {"module": "keras.initializers", "class_name": "GlorotUniform", "config": {"seed": null}, "registered_name": null}, "bias_initializer": {"module": "keras.initializers", "class_name": "Zeros", "config": {}, "registered_name": null}, "kernel_regularizer": null, "bias_regularizer": null, "activity_regularizer": null, "kernel_constraint": null, "bias_constraint": null}, "name": "conv2d_1062", "inbound_nodes": [[["activation_1061", 0, 0, {}]]]}, {"class_name": "BatchNormalization", "config": {"name": "batch_normalization_1062", "trainable": false, "dtype": "float32", "axis": [3], "momentum": 0.99, "epsilon": 0.001, "center": true, "scale": false, "beta_initializer": {"module": "keras.initializers", "class_name": "Zeros", "config": {}, "registered_name": null}, "gamma_initializer": {"module": "keras.initializers", "class_name": "Ones", "config": {}, "registered_name": null}, "moving_mean_initializer": {"module": "keras.initializers", "class_name": "Zeros", "config": {}, "registered_name": null}, "moving_variance_initializer": {"module": "keras.initializers", "class_name": "Ones", "config": {}, "registered_name": null}, "beta_regularizer": null, "gamma_regularizer": null, "beta_constraint": null, "gamma_constraint": null}, "name": "batch_normalization_1062", "inbound_nodes": [[["conv2d_1062", 0, 0, {}]]]}, {"class_name": "Activation", "config": {"name": "activation_1062", "trainable": false, "dtype": "float32", "activation": "relu"}, "name": "activation_1062", "inbound_nodes": [[["batch_normalization_1062", 0, 0, {}]]]}, {"class_name": "Conv2D", "config": {"name": "conv2d_1060", "trainable": false, "dtype": "float32", "filters": 384, "kernel_size": [3, 3], "strides": [2, 2], "padding": "valid", "data_format": "channels_last", "dilation_rate": [1, 1], "groups": 1, "activation": "linear", "use_bias": false, "kernel_initializer": {"module": "keras.initializers", "class_name": "GlorotUniform", "config": {"seed": null}, "registered_name": null}, "bias_initializer": {"module": "keras.initializers", "class_name": "Zeros", "config": {}, "registered_name": null}, "kernel_regularizer": null, "bias_regularizer": null, "activity_regularizer": null, "kernel_constraint": null, "bias_constraint": null}, "name": "conv2d_1060", "inbound_nodes": [[["mixed2", 0, 0, {}]]]}, {"class_name": "Conv2D", "config": {"name": "conv2d_1063", "trainable": false, "dtype": "float32", "filters": 96, "kernel_size": [3, 3], "strides": [2, 2], "padding": "valid", "data_format": "channels_last", "dilation_rate": [1, 1], "groups": 1, "activation": "linear", "use_bias": false, "kernel_initializer": {"module": "keras.initializers", "class_name": "GlorotUniform", "config": {"seed": null}, "registered_name": null}, "bias_initializer": {"module": "keras.initializers", "class_name": "Zeros", "config": {}, "registered_name": null}, "kernel_regularizer": null, "bias_regularizer": null, "activity_regularizer": null, "kernel_constraint": null, "bias_constraint": null}, "name": "conv2d_1063", "inbound_nodes": [[["activation_1062", 0, 0, {}]]]}, {"class_name": "BatchNormalization", "config": {"name": "batch_normalization_1060", "trainable": false, "dtype": "float32", "axis": [3], "momentum": 0.99, "epsilon": 0.001, "center": true, "scale": false, "beta_initializer": {"module": "keras.initializers", "class_name": "Zeros", "config": {}, "registered_name": null}, "gamma_initializer": {"module": "keras.initializers", "class_name": "Ones", "config": {}, "registered_name": null}, "moving_mean_initializer": {"module": "keras.initializers", "class_name": "Zeros", "config": {}, "registered_name": null}, "moving_variance_initializer": {"module": "keras.initializers", "class_name": "Ones", "config": {}, "registered_name": null}, "beta_regularizer": null, "gamma_regularizer": null, "beta_constraint": null, "gamma_constraint": null}, "name": "batch_normalization_1060", "inbound_nodes": [[["conv2d_1060", 0, 0, {}]]]}, {"class_name": "BatchNormalization", "config": {"name": "batch_normalization_1063", "trainable": false, "dtype": "float32", "axis": [3], "momentum": 0.99, "epsilon": 0.001, "center": true, "scale": false, "beta_initializer": {"module": "keras.initializers", "class_name": "Zeros", "config": {}, "registered_name": null}, "gamma_initializer": {"module": "keras.initializers", "class_name": "Ones", "config": {}, "registered_name": null}, "moving_mean_initializer": {"module": "keras.initializers", "class_name": "Zeros", "config": {}, "registered_name": null}, "moving_variance_initializer": {"module": "keras.initializers", "class_name": "Ones", "config": {}, "registered_name": null}, "beta_regularizer": null, "gamma_regularizer": null, "beta_constraint": null, "gamma_constraint": null}, "name": "batch_normalization_1063", "inbound_nodes": [[["conv2d_1063", 0, 0, {}]]]}, {"class_name": "Activation", "config": {"name": "activation_1060", "trainable": false, "dtype": "float32", "activation": "relu"}, "name": "activation_1060", "inbound_nodes": [[["batch_normalization_1060", 0, 0, {}]]]}, {"class_name": "Activation", "config": {"name": "activation_1063", "trainable": false, "dtype": "float32", "activation": "relu"}, "name": "activation_1063", "inbound_nodes": [[["batch_normalization_1063", 0, 0, {}]]]}, {"class_name": "MaxPooling2D", "config": {"name": "max_pooling2d_46", "trainable": false, "dtype": "float32", "pool_size": [3, 3], "padding": "valid", "strides": [2, 2], "data_format": "channels_last"}, "name": "max_pooling2d_46", "inbound_nodes": [[["mixed2", 0, 0, {}]]]}, {"class_name": "Concatenate", "config": {"name": "mixed3", "trainable": false, "dtype": "float32", "axis": 3}, "name": "mixed3", "inbound_nodes": [[["activation_1060", 0, 0, {}], ["activation_1063", 0, 0, {}], ["max_pooling2d_46", 0, 0, {}]]]}, {"class_name": "Conv2D", "config": {"name": "conv2d_1068", "trainable": false, "dtype": "float32", "filters": 128, "kernel_size": [1, 1], "strides": [1, 1], "padding": "same", "data_format": "channels_last", "dilation_rate": [1, 1], "groups": 1, "activation": "linear", "use_bias": false, "kernel_initializer": {"module": "keras.initializers", "class_name": "GlorotUniform", "config": {"seed": null}, "registered_name": null}, "bias_initializer": {"module": "keras.initializers", "class_name": "Zeros", "config": {}, "registered_name": null}, "kernel_regularizer": null, "bias_regularizer": null, "activity_regularizer": null, "kernel_constraint": null, "bias_constraint": null}, "name": "conv2d_1068", "inbound_nodes": [[["mixed3", 0, 0, {}]]]}, {"class_name": "BatchNormalization", "config": {"name": "batch_normalization_1068", "trainable": false, "dtype": "float32", "axis": [3], "momentum": 0.99, "epsilon": 0.001, "center": true, "scale": false, "beta_initializer": {"module": "keras.initializers", "class_name": "Zeros", "config": {}, "registered_name": null}, "gamma_initializer": {"module": "keras.initializers", "class_name": "Ones", "config": {}, "registered_name": null}, "moving_mean_initializer": {"module": "keras.initializers", "class_name": "Zeros", "config": {}, "registered_name": null}, "moving_variance_initializer": {"module": "keras.initializers", "class_name": "Ones", "config": {}, "registered_name": null}, "beta_regularizer": null, "gamma_regularizer": null, "beta_constraint": null, "gamma_constraint": null}, "name": "batch_normalization_1068", "inbound_nodes": [[["conv2d_1068", 0, 0, {}]]]}, {"class_name": "Activation", "config": {"name": "activation_1068", "trainable": false, "dtype": "float32", "activation": "relu"}, "name": "activation_1068", "inbound_nodes": [[["batch_normalization_1068", 0, 0, {}]]]}, {"class_name": "Conv2D", "config": {"name": "conv2d_1069", "trainable": false, "dtype": "float32", "filters": 128, "kernel_size": [7, 1], "strides": [1, 1], "padding": "same", "data_format": "channels_last", "dilation_rate": [1, 1], "groups": 1, "activation": "linear", "use_bias": false, "kernel_initializer": {"module": "keras.initializers", "class_name": "GlorotUniform", "config": {"seed": null}, "registered_name": null}, "bias_initializer": {"module": "keras.initializers", "class_name": "Zeros", "config": {}, "registered_name": null}, "kernel_regularizer": null, "bias_regularizer": null, "activity_regularizer": null, "kernel_constraint": null, "bias_constraint": null}, "name": "conv2d_1069", "inbound_nodes": [[["activation_1068", 0, 0, {}]]]}, {"class_name": "BatchNormalization", "config": {"name": "batch_normalization_1069", "trainable": false, "dtype": "float32", "axis": [3], "momentum": 0.99, "epsilon": 0.001, "center": true, "scale": false, "beta_initializer": {"module": "keras.initializers", "class_name": "Zeros", "config": {}, "registered_name": null}, "gamma_initializer": {"module": "keras.initializers", "class_name": "Ones", "config": {}, "registered_name": null}, "moving_mean_initializer": {"module": "keras.initializers", "class_name": "Zeros", "config": {}, "registered_name": null}, "moving_variance_initializer": {"module": "keras.initializers", "class_name": "Ones", "config": {}, "registered_name": null}, "beta_regularizer": null, "gamma_regularizer": null, "beta_constraint": null, "gamma_constraint": null}, "name": "batch_normalization_1069", "inbound_nodes": [[["conv2d_1069", 0, 0, {}]]]}, {"class_name": "Activation", "config": {"name": "activation_1069", "trainable": false, "dtype": "float32", "activation": "relu"}, "name": "activation_1069", "inbound_nodes": [[["batch_normalization_1069", 0, 0, {}]]]}, {"class_name": "Conv2D", "config": {"name": "conv2d_1065", "trainable": false, "dtype": "float32", "filters": 128, "kernel_size": [1, 1], "strides": [1, 1], "padding": "same", "data_format": "channels_last", "dilation_rate": [1, 1], "groups": 1, "activation": "linear", "use_bias": false, "kernel_initializer": {"module": "keras.initializers", "class_name": "GlorotUniform", "config": {"seed": null}, "registered_name": null}, "bias_initializer": {"module": "keras.initializers", "class_name": "Zeros", "config": {}, "registered_name": null}, "kernel_regularizer": null, "bias_regularizer": null, "activity_regularizer": null, "kernel_constraint": null, "bias_constraint": null}, "name": "conv2d_1065", "inbound_nodes": [[["mixed3", 0, 0, {}]]]}, {"class_name": "Conv2D", "config": {"name": "conv2d_1070", "trainable": false, "dtype": "float32", "filters": 128, "kernel_size": [1, 7], "strides": [1, 1], "padding": "same", "data_format": "channels_last", "dilation_rate": [1, 1], "groups": 1, "activation": "linear", "use_bias": false, "kernel_initializer": {"module": "keras.initializers", "class_name": "GlorotUniform", "config": {"seed": null}, "registered_name": null}, "bias_initializer": {"module": "keras.initializers", "class_name": "Zeros", "config": {}, "registered_name": null}, "kernel_regularizer": null, "bias_regularizer": null, "activity_regularizer": null, "kernel_constraint": null, "bias_constraint": null}, "name": "conv2d_1070", "inbound_nodes": [[["activation_1069", 0, 0, {}]]]}, {"class_name": "BatchNormalization", "config": {"name": "batch_normalization_1065", "trainable": false, "dtype": "float32", "axis": [3], "momentum": 0.99, "epsilon": 0.001, "center": true, "scale": false, "beta_initializer": {"module": "keras.initializers", "class_name": "Zeros", "config": {}, "registered_name": null}, "gamma_initializer": {"module": "keras.initializers", "class_name": "Ones", "config": {}, "registered_name": null}, "moving_mean_initializer": {"module": "keras.initializers", "class_name": "Zeros", "config": {}, "registered_name": null}, "moving_variance_initializer": {"module": "keras.initializers", "class_name": "Ones", "config": {}, "registered_name": null}, "beta_regularizer": null, "gamma_regularizer": null, "beta_constraint": null, "gamma_constraint": null}, "name": "batch_normalization_1065", "inbound_nodes": [[["conv2d_1065", 0, 0, {}]]]}, {"class_name": "BatchNormalization", "config": {"name": "batch_normalization_1070", "trainable": false, "dtype": "float32", "axis": [3], "momentum": 0.99, "epsilon": 0.001, "center": true, "scale": false, "beta_initializer": {"module": "keras.initializers", "class_name": "Zeros", "config": {}, "registered_name": null}, "gamma_initializer": {"module": "keras.initializers", "class_name": "Ones", "config": {}, "registered_name": null}, "moving_mean_initializer": {"module": "keras.initializers", "class_name": "Zeros", "config": {}, "registered_name": null}, "moving_variance_initializer": {"module": "keras.initializers", "class_name": "Ones", "config": {}, "registered_name": null}, "beta_regularizer": null, "gamma_regularizer": null, "beta_constraint": null, "gamma_constraint": null}, "name": "batch_normalization_1070", "inbound_nodes": [[["conv2d_1070", 0, 0, {}]]]}, {"class_name": "Activation", "config": {"name": "activation_1065", "trainable": false, "dtype": "float32", "activation": "relu"}, "name": "activation_1065", "inbound_nodes": [[["batch_normalization_1065", 0, 0, {}]]]}, {"class_name": "Activation", "config": {"name": "activation_1070", "trainable": false, "dtype": "float32", "activation": "relu"}, "name": "activation_1070", "inbound_nodes": [[["batch_normalization_1070", 0, 0, {}]]]}, {"class_name": "Conv2D", "config": {"name": "conv2d_1066", "trainable": false, "dtype": "float32", "filters": 128, "kernel_size": [1, 7], "strides": [1, 1], "padding": "same", "data_format": "channels_last", "dilation_rate": [1, 1], "groups": 1, "activation": "linear", "use_bias": false, "kernel_initializer": {"module": "keras.initializers", "class_name": "GlorotUniform", "config": {"seed": null}, "registered_name": null}, "bias_initializer": {"module": "keras.initializers", "class_name": "Zeros", "config": {}, "registered_name": null}, "kernel_regularizer": null, "bias_regularizer": null, "activity_regularizer": null, "kernel_constraint": null, "bias_constraint": null}, "name": "conv2d_1066", "inbound_nodes": [[["activation_1065", 0, 0, {}]]]}, {"class_name": "Conv2D", "config": {"name": "conv2d_1071", "trainable": false, "dtype": "float32", "filters": 128, "kernel_size": [7, 1], "strides": [1, 1], "padding": "same", "data_format": "channels_last", "dilation_rate": [1, 1], "groups": 1, "activation": "linear", "use_bias": false, "kernel_initializer": {"module": "keras.initializers", "class_name": "GlorotUniform", "config": {"seed": null}, "registered_name": null}, "bias_initializer": {"module": "keras.initializers", "class_name": "Zeros", "config": {}, "registered_name": null}, "kernel_regularizer": null, "bias_regularizer": null, "activity_regularizer": null, "kernel_constraint": null, "bias_constraint": null}, "name": "conv2d_1071", "inbound_nodes": [[["activation_1070", 0, 0, {}]]]}, {"class_name": "BatchNormalization", "config": {"name": "batch_normalization_1066", "trainable": false, "dtype": "float32", "axis": [3], "momentum": 0.99, "epsilon": 0.001, "center": true, "scale": false, "beta_initializer": {"module": "keras.initializers", "class_name": "Zeros", "config": {}, "registered_name": null}, "gamma_initializer": {"module": "keras.initializers", "class_name": "Ones", "config": {}, "registered_name": null}, "moving_mean_initializer": {"module": "keras.initializers", "class_name": "Zeros", "config": {}, "registered_name": null}, "moving_variance_initializer": {"module": "keras.initializers", "class_name": "Ones", "config": {}, "registered_name": null}, "beta_regularizer": null, "gamma_regularizer": null, "beta_constraint": null, "gamma_constraint": null}, "name": "batch_normalization_1066", "inbound_nodes": [[["conv2d_1066", 0, 0, {}]]]}, {"class_name": "BatchNormalization", "config": {"name": "batch_normalization_1071", "trainable": false, "dtype": "float32", "axis": [3], "momentum": 0.99, "epsilon": 0.001, "center": true, "scale": false, "beta_initializer": {"module": "keras.initializers", "class_name": "Zeros", "config": {}, "registered_name": null}, "gamma_initializer": {"module": "keras.initializers", "class_name": "Ones", "config": {}, "registered_name": null}, "moving_mean_initializer": {"module": "keras.initializers", "class_name": "Zeros", "config": {}, "registered_name": null}, "moving_variance_initializer": {"module": "keras.initializers", "class_name": "Ones", "config": {}, "registered_name": null}, "beta_regularizer": null, "gamma_regularizer": null, "beta_constraint": null, "gamma_constraint": null}, "name": "batch_normalization_1071", "inbound_nodes": [[["conv2d_1071", 0, 0, {}]]]}, {"class_name": "Activation", "config": {"name": "activation_1066", "trainable": false, "dtype": "float32", "activation": "relu"}, "name": "activation_1066", "inbound_nodes": [[["batch_normalization_1066", 0, 0, {}]]]}, {"class_name": "Activation", "config": {"name": "activation_1071", "trainable": false, "dtype": "float32", "activation": "relu"}, "name": "activation_1071", "inbound_nodes": [[["batch_normalization_1071", 0, 0, {}]]]}, {"class_name": "AveragePooling2D", "config": {"name": "average_pooling2d_102", "trainable": false, "dtype": "float32", "pool_size": [3, 3], "padding": "same", "strides": [1, 1], "data_format": "channels_last"}, "name": "average_pooling2d_102", "inbound_nodes": [[["mixed3", 0, 0, {}]]]}, {"class_name": "Conv2D", "config": {"name": "conv2d_1064", "trainable": false, "dtype": "float32", "filters": 192, "kernel_size": [1, 1], "strides": [1, 1], "padding": "same", "data_format": "channels_last", "dilation_rate": [1, 1], "groups": 1, "activation": "linear", "use_bias": false, "kernel_initializer": {"module": "keras.initializers", "class_name": "GlorotUniform", "config": {"seed": null}, "registered_name": null}, "bias_initializer": {"module": "keras.initializers", "class_name": "Zeros", "config": {}, "registered_name": null}, "kernel_regularizer": null, "bias_regularizer": null, "activity_regularizer": null, "kernel_constraint": null, "bias_constraint": null}, "name": "conv2d_1064", "inbound_nodes": [[["mixed3", 0, 0, {}]]]}, {"class_name": "Conv2D", "config": {"name": "conv2d_1067", "trainable": false, "dtype": "float32", "filters": 192, "kernel_size": [7, 1], "strides": [1, 1], "padding": "same", "data_format": "channels_last", "dilation_rate": [1, 1], "groups": 1, "activation": "linear", "use_bias": false, "kernel_initializer": {"module": "keras.initializers", "class_name": "GlorotUniform", "config": {"seed": null}, "registered_name": null}, "bias_initializer": {"module": "keras.initializers", "class_name": "Zeros", "config": {}, "registered_name": null}, "kernel_regularizer": null, "bias_regularizer": null, "activity_regularizer": null, "kernel_constraint": null, "bias_constraint": null}, "name": "conv2d_1067", "inbound_nodes": [[["activation_1066", 0, 0, {}]]]}, {"class_name": "Conv2D", "config": {"name": "conv2d_1072", "trainable": false, "dtype": "float32", "filters": 192, "kernel_size": [1, 7], "strides": [1, 1], "padding": "same", "data_format": "channels_last", "dilation_rate": [1, 1], "groups": 1, "activation": "linear", "use_bias": false, "kernel_initializer": {"module": "keras.initializers", "class_name": "GlorotUniform", "config": {"seed": null}, "registered_name": null}, "bias_initializer": {"module": "keras.initializers", "class_name": "Zeros", "config": {}, "registered_name": null}, "kernel_regularizer": null, "bias_regularizer": null, "activity_regularizer": null, "kernel_constraint": null, "bias_constraint": null}, "name": "conv2d_1072", "inbound_nodes": [[["activation_1071", 0, 0, {}]]]}, {"class_name": "Conv2D", "config": {"name": "conv2d_1073", "trainable": false, "dtype": "float32", "filters": 192, "kernel_size": [1, 1], "strides": [1, 1], "padding": "same", "data_format": "channels_last", "dilation_rate": [1, 1], "groups": 1, "activation": "linear", "use_bias": false, "kernel_initializer": {"module": "keras.initializers", "class_name": "GlorotUniform", "config": {"seed": null}, "registered_name": null}, "bias_initializer": {"module": "keras.initializers", "class_name": "Zeros", "config": {}, "registered_name": null}, "kernel_regularizer": null, "bias_regularizer": null, "activity_regularizer": null, "kernel_constraint": null, "bias_constraint": null}, "name": "conv2d_1073", "inbound_nodes": [[["average_pooling2d_102", 0, 0, {}]]]}, {"class_name": "BatchNormalization", "config": {"name": "batch_normalization_1064", "trainable": false, "dtype": "float32", "axis": [3], "momentum": 0.99, "epsilon": 0.001, "center": true, "scale": false, "beta_initializer": {"module": "keras.initializers", "class_name": "Zeros", "config": {}, "registered_name": null}, "gamma_initializer": {"module": "keras.initializers", "class_name": "Ones", "config": {}, "registered_name": null}, "moving_mean_initializer": {"module": "keras.initializers", "class_name": "Zeros", "config": {}, "registered_name": null}, "moving_variance_initializer": {"module": "keras.initializers", "class_name": "Ones", "config": {}, "registered_name": null}, "beta_regularizer": null, "gamma_regularizer": null, "beta_constraint": null, "gamma_constraint": null}, "name": "batch_normalization_1064", "inbound_nodes": [[["conv2d_1064", 0, 0, {}]]]}, {"class_name": "BatchNormalization", "config": {"name": "batch_normalization_1067", "trainable": false, "dtype": "float32", "axis": [3], "momentum": 0.99, "epsilon": 0.001, "center": true, "scale": false, "beta_initializer": {"module": "keras.initializers", "class_name": "Zeros", "config": {}, "registered_name": null}, "gamma_initializer": {"module": "keras.initializers", "class_name": "Ones", "config": {}, "registered_name": null}, "moving_mean_initializer": {"module": "keras.initializers", "class_name": "Zeros", "config": {}, "registered_name": null}, "moving_variance_initializer": {"module": "keras.initializers", "class_name": "Ones", "config": {}, "registered_name": null}, "beta_regularizer": null, "gamma_regularizer": null, "beta_constraint": null, "gamma_constraint": null}, "name": "batch_normalization_1067", "inbound_nodes": [[["conv2d_1067", 0, 0, {}]]]}, {"class_name": "BatchNormalization", "config": {"name": "batch_normalization_1072", "trainable": false, "dtype": "float32", "axis": [3], "momentum": 0.99, "epsilon": 0.001, "center": true, "scale": false, "beta_initializer": {"module": "keras.initializers", "class_name": "Zeros", "config": {}, "registered_name": null}, "gamma_initializer": {"module": "keras.initializers", "class_name": "Ones", "config": {}, "registered_name": null}, "moving_mean_initializer": {"module": "keras.initializers", "class_name": "Zeros", "config": {}, "registered_name": null}, "moving_variance_initializer": {"module": "keras.initializers", "class_name": "Ones", "config": {}, "registered_name": null}, "beta_regularizer": null, "gamma_regularizer": null, "beta_constraint": null, "gamma_constraint": null}, "name": "batch_normalization_1072", "inbound_nodes": [[["conv2d_1072", 0, 0, {}]]]}, {"class_name": "BatchNormalization", "config": {"name": "batch_normalization_1073", "trainable": false, "dtype": "float32", "axis": [3], "momentum": 0.99, "epsilon": 0.001, "center": true, "scale": false, "beta_initializer": {"module": "keras.initializers", "class_name": "Zeros", "config": {}, "registered_name": null}, "gamma_initializer": {"module": "keras.initializers", "class_name": "Ones", "config": {}, "registered_name": null}, "moving_mean_initializer": {"module": "keras.initializers", "class_name": "Zeros", "config": {}, "registered_name": null}, "moving_variance_initializer": {"module": "keras.initializers", "class_name": "Ones", "config": {}, "registered_name": null}, "beta_regularizer": null, "gamma_regularizer": null, "beta_constraint": null, "gamma_constraint": null}, "name": "batch_normalization_1073", "inbound_nodes": [[["conv2d_1073", 0, 0, {}]]]}, {"class_name": "Activation", "config": {"name": "activation_1064", "trainable": false, "dtype": "float32", "activation": "relu"}, "name": "activation_1064", "inbound_nodes": [[["batch_normalization_1064", 0, 0, {}]]]}, {"class_name": "Activation", "config": {"name": "activation_1067", "trainable": false, "dtype": "float32", "activation": "relu"}, "name": "activation_1067", "inbound_nodes": [[["batch_normalization_1067", 0, 0, {}]]]}, {"class_name": "Activation", "config": {"name": "activation_1072", "trainable": false, "dtype": "float32", "activation": "relu"}, "name": "activation_1072", "inbound_nodes": [[["batch_normalization_1072", 0, 0, {}]]]}, {"class_name": "Activation", "config": {"name": "activation_1073", "trainable": false, "dtype": "float32", "activation": "relu"}, "name": "activation_1073", "inbound_nodes": [[["batch_normalization_1073", 0, 0, {}]]]}, {"class_name": "Concatenate", "config": {"name": "mixed4", "trainable": false, "dtype": "float32", "axis": 3}, "name": "mixed4", "inbound_nodes": [[["activation_1064", 0, 0, {}], ["activation_1067", 0, 0, {}], ["activation_1072", 0, 0, {}], ["activation_1073", 0, 0, {}]]]}, {"class_name": "Flatten", "config": {"name": "flatten_11", "trainable": true, "dtype": "float32", "data_format": "channels_last"}, "name": "flatten_11", "inbound_nodes": [[["mixed4", 0, 0, {}]]]}, {"class_name": "Dense", "config": {"name": "dense_15", "trainable": true, "dtype": "float32", "units": 15, "activation": "softmax", "use_bias": true, "kernel_initializer": {"module": "keras.initializers", "class_name": "GlorotUniform", "config": {"seed": null}, "registered_name": null}, "bias_initializer": {"module": "keras.initializers", "class_name": "Zeros", "config": {}, "registered_name": null}, "kernel_regularizer": null, "bias_regularizer": null, "activity_regularizer": null, "kernel_constraint": null, "bias_constraint": null}, "name": "dense_15", "inbound_nodes": [[["flatten_11", 0, 0, {}]]]}], "input_layers": [["input_12", 0, 0]], "output_layers": [["dense_15", 0, 0]]}}, "training_config": {"loss": "categorical_crossentropy", "metrics": [[{"class_name": "MeanMetricWrapper", "config": {"name": "accuracy", "dtype": "float32", "fn": "categorical_accuracy"}}]], "weighted_metrics": null, "loss_weights": null, "optimizer_config": {"class_name": "Custom>Adam", "config": {"name": "Adam", "weight_decay": null, "clipnorm": null, "global_clipnorm": null, "clipvalue": null, "use_ema": false, "ema_momentum": 0.99, "ema_overwrite_frequency": null, "jit_compile": false, "is_legacy_optimizer": false, "learning_rate": 0.0010000000474974513, "beta_1": 0.9, "beta_2": 0.999, "epsilon": 1e-07, "amsgrad": false}}}}, "weightsManifest": [{"paths": ["group1-shard1of4.bin", "group1-shard2of4.bin", "group1-shard3of4.bin", "group1-shard4of4.bin"], "weights": [{"name": "batch_normalization_1034/beta", "shape": [32], "dtype": "float32"}, {"name": "batch_normalization_1034/moving_mean", "shape": [32], "dtype": "float32"}, {"name": "batch_normalization_1034/moving_variance", "shape": [32], "dtype": "float32"}, {"name": "batch_normalization_1035/beta", "shape": [32], "dtype": "float32"}, {"name": "batch_normalization_1035/moving_mean", "shape": [32], "dtype": "float32"}, {"name": "batch_normalization_1035/moving_variance", "shape": [32], "dtype": "float32"}, {"name": "batch_normalization_1036/beta", "shape": [64], "dtype": "float32"}, {"name": "batch_normalization_1036/moving_mean", "shape": [64], "dtype": "float32"}, {"name": "batch_normalization_1036/moving_variance", "shape": [64], "dtype": "float32"}, {"name": "batch_normalization_1037/beta", "shape": [80], "dtype": "float32"}, {"name": "batch_normalization_1037/moving_mean", "shape": [80], "dtype": "float32"}, {"name": "batch_normalization_1037/moving_variance", "shape": [80], "dtype": "float32"}, {"name": "batch_normalization_1038/beta", "shape": [192], "dtype": "float32"}, {"name": "batch_normalization_1038/moving_mean", "shape": [192], "dtype": "float32"}, {"name": "batch_normalization_1038/moving_variance", "shape": [192], "dtype": "float32"}, {"name": "batch_normalization_1039/beta", "shape": [64], "dtype": "float32"}, {"name": "batch_normalization_1039/moving_mean", "shape": [64], "dtype": "float32"}, {"name": "batch_normalization_1039/moving_variance", "shape": [64], "dtype": "float32"}, {"name": "batch_normalization_1040/beta", "shape": [48], "dtype": "float32"}, {"name": "batch_normalization_1040/moving_mean", "shape": [48], "dtype": "float32"}, {"name": "batch_normalization_1040/moving_variance", "shape": [48], "dtype": "float32"}, {"name": "batch_normalization_1041/beta", "shape": [64], "dtype": "float32"}, {"name": "batch_normalization_1041/moving_mean", "shape": [64], "dtype": "float32"}, {"name": "batch_normalization_1041/moving_variance", "shape": [64], "dtype": "float32"}, {"name": "batch_normalization_1042/beta", "shape": [64], "dtype": "float32"}, {"name": "batch_normalization_1042/moving_mean", "shape": [64], "dtype": "float32"}, {"name": "batch_normalization_1042/moving_variance", "shape": [64], "dtype": "float32"}, {"name": "batch_normalization_1043/beta", "shape": [96], "dtype": "float32"}, {"name": "batch_normalization_1043/moving_mean", "shape": [96], "dtype": "float32"}, {"name": "batch_normalization_1043/moving_variance", "shape": [96], "dtype": "float32"}, {"name": "batch_normalization_1044/beta", "shape": [96], "dtype": "float32"}, {"name": "batch_normalization_1044/moving_mean", "shape": [96], "dtype": "float32"}, {"name": "batch_normalization_1044/moving_variance", "shape": [96], "dtype": "float32"}, {"name": "batch_normalization_1045/beta", "shape": [32], "dtype": "float32"}, {"name": "batch_normalization_1045/moving_mean", "shape": [32], "dtype": "float32"}, {"name": "batch_normalization_1045/moving_variance", "shape": [32], "dtype": "float32"}, {"name": "batch_normalization_1046/beta", "shape": [64], "dtype": "float32"}, {"name": "batch_normalization_1046/moving_mean", "shape": [64], "dtype": "float32"}, {"name": "batch_normalization_1046/moving_variance", "shape": [64], "dtype": "float32"}, {"name": "batch_normalization_1047/beta", "shape": [48], "dtype": "float32"}, {"name": "batch_normalization_1047/moving_mean", "shape": [48], "dtype": "float32"}, {"name": "batch_normalization_1047/moving_variance", "shape": [48], "dtype": "float32"}, {"name": "batch_normalization_1048/beta", "shape": [64], "dtype": "float32"}, {"name": "batch_normalization_1048/moving_mean", "shape": [64], "dtype": "float32"}, {"name": "batch_normalization_1048/moving_variance", "shape": [64], "dtype": "float32"}, {"name": "batch_normalization_1049/beta", "shape": [64], "dtype": "float32"}, {"name": "batch_normalization_1049/moving_mean", "shape": [64], "dtype": "float32"}, {"name": "batch_normalization_1049/moving_variance", "shape": [64], "dtype": "float32"}, {"name": "batch_normalization_1050/beta", "shape": [96], "dtype": "float32"}, {"name": "batch_normalization_1050/moving_mean", "shape": [96], "dtype": "float32"}, {"name": "batch_normalization_1050/moving_variance", "shape": [96], "dtype": "float32"}, {"name": "batch_normalization_1051/beta", "shape": [96], "dtype": "float32"}, {"name": "batch_normalization_1051/moving_mean", "shape": [96], "dtype": "float32"}, {"name": "batch_normalization_1051/moving_variance", "shape": [96], "dtype": "float32"}, {"name": "batch_normalization_1052/beta", "shape": [64], "dtype": "float32"}, {"name": "batch_normalization_1052/moving_mean", "shape": [64], "dtype": "float32"}, {"name": "batch_normalization_1052/moving_variance", "shape": [64], "dtype": "float32"}, {"name": "batch_normalization_1053/beta", "shape": [64], "dtype": "float32"}, {"name": "batch_normalization_1053/moving_mean", "shape": [64], "dtype": "float32"}, {"name": "batch_normalization_1053/moving_variance", "shape": [64], "dtype": "float32"}, {"name": "batch_normalization_1054/beta", "shape": [48], "dtype": "float32"}, {"name": "batch_normalization_1054/moving_mean", "shape": [48], "dtype": "float32"}, {"name": "batch_normalization_1054/moving_variance", "shape": [48], "dtype": "float32"}, {"name": "batch_normalization_1055/beta", "shape": [64], "dtype": "float32"}, {"name": "batch_normalization_1055/moving_mean", "shape": [64], "dtype": "float32"}, {"name": "batch_normalization_1055/moving_variance", "shape": [64], "dtype": "float32"}, {"name": "batch_normalization_1056/beta", "shape": [64], "dtype": "float32"}, {"name": "batch_normalization_1056/moving_mean", "shape": [64], "dtype": "float32"}, {"name": "batch_normalization_1056/moving_variance", "shape": [64], "dtype": "float32"}, {"name": "batch_normalization_1057/beta", "shape": [96], "dtype": "float32"}, {"name": "batch_normalization_1057/moving_mean", "shape": [96], "dtype": "float32"}, {"name": "batch_normalization_1057/moving_variance", "shape": [96], "dtype": "float32"}, {"name": "batch_normalization_1058/beta", "shape": [96], "dtype": "float32"}, {"name": "batch_normalization_1058/moving_mean", "shape": [96], "dtype": "float32"}, {"name": "batch_normalization_1058/moving_variance", "shape": [96], "dtype": "float32"}, {"name": "batch_normalization_1059/beta", "shape": [64], "dtype": "float32"}, {"name": "batch_normalization_1059/moving_mean", "shape": [64], "dtype": "float32"}, {"name": "batch_normalization_1059/moving_variance", "shape": [64], "dtype": "float32"}, {"name": "batch_normalization_1060/beta", "shape": [384], "dtype": "float32"}, {"name": "batch_normalization_1060/moving_mean", "shape": [384], "dtype": "float32"}, {"name": "batch_normalization_1060/moving_variance", "shape": [384], "dtype": "float32"}, {"name": "batch_normalization_1061/beta", "shape": [64], "dtype": "float32"}, {"name": "batch_normalization_1061/moving_mean", "shape": [64], "dtype": "float32"}, {"name": "batch_normalization_1061/moving_variance", "shape": [64], "dtype": "float32"}, {"name": "batch_normalization_1062/beta", "shape": [96], "dtype": "float32"}, {"name": "batch_normalization_1062/moving_mean", "shape": [96], "dtype": "float32"}, {"name": "batch_normalization_1062/moving_variance", "shape": [96], "dtype": "float32"}, {"name": "batch_normalization_1063/beta", "shape": [96], "dtype": "float32"}, {"name": "batch_normalization_1063/moving_mean", "shape": [96], "dtype": "float32"}, {"name": "batch_normalization_1063/moving_variance", "shape": [96], "dtype": "float32"}, {"name": "batch_normalization_1064/beta", "shape": [192], "dtype": "float32"}, {"name": "batch_normalization_1064/moving_mean", "shape": [192], "dtype": "float32"}, {"name": "batch_normalization_1064/moving_variance", "shape": [192], "dtype": "float32"}, {"name": "batch_normalization_1065/beta", "shape": [128], "dtype": "float32"}, {"name": "batch_normalization_1065/moving_mean", "shape": [128], "dtype": "float32"}, {"name": "batch_normalization_1065/moving_variance", "shape": [128], "dtype": "float32"}, {"name": "batch_normalization_1066/beta", "shape": [128], "dtype": "float32"}, {"name": "batch_normalization_1066/moving_mean", "shape": [128], "dtype": "float32"}, {"name": "batch_normalization_1066/moving_variance", "shape": [128], "dtype": "float32"}, {"name": "batch_normalization_1067/beta", "shape": [192], "dtype": "float32"}, {"name": "batch_normalization_1067/moving_mean", "shape": [192], "dtype": "float32"}, {"name": "batch_normalization_1067/moving_variance", "shape": [192], "dtype": "float32"}, {"name": "batch_normalization_1068/beta", "shape": [128], "dtype": "float32"}, {"name": "batch_normalization_1068/moving_mean", "shape": [128], "dtype": "float32"}, {"name": "batch_normalization_1068/moving_variance", "shape": [128], "dtype": "float32"}, {"name": "batch_normalization_1069/beta", "shape": [128], "dtype": "float32"}, {"name": "batch_normalization_1069/moving_mean", "shape": [128], "dtype": "float32"}, {"name": "batch_normalization_1069/moving_variance", "shape": [128], "dtype": "float32"}, {"name": "batch_normalization_1070/beta", "shape": [128], "dtype": "float32"}, {"name": "batch_normalization_1070/moving_mean", "shape": [128], "dtype": "float32"}, {"name": "batch_normalization_1070/moving_variance", "shape": [128], "dtype": "float32"}, {"name": "batch_normalization_1071/beta", "shape": [128], "dtype": "float32"}, {"name": "batch_normalization_1071/moving_mean", "shape": [128], "dtype": "float32"}, {"name": "batch_normalization_1071/moving_variance", "shape": [128], "dtype": "float32"}, {"name": "batch_normalization_1072/beta", "shape": [192], "dtype": "float32"}, {"name": "batch_normalization_1072/moving_mean", "shape": [192], "dtype": "float32"}, {"name": "batch_normalization_1072/moving_variance", "shape": [192], "dtype": "float32"}, {"name": "batch_normalization_1073/beta", "shape": [192], "dtype": "float32"}, {"name": "batch_normalization_1073/moving_mean", "shape": [192], "dtype": "float32"}, {"name": "batch_normalization_1073/moving_variance", "shape": [192], "dtype": "float32"}, {"name": "conv2d_1034/kernel", "shape": [3, 3, 3, 32], "dtype": "float32"}, {"name": "conv2d_1035/kernel", "shape": [3, 3, 32, 32], "dtype": "float32"}, {"name": "conv2d_1036/kernel", "shape": [3, 3, 32, 64], "dtype": "float32"}, {"name": "conv2d_1037/kernel", "shape": [1, 1, 64, 80], "dtype": "float32"}, {"name": "conv2d_1038/kernel", "shape": [3, 3, 80, 192], "dtype": "float32"}, {"name": "conv2d_1039/kernel", "shape": [1, 1, 192, 64], "dtype": "float32"}, {"name": "conv2d_1040/kernel", "shape": [1, 1, 192, 48], "dtype": "float32"}, {"name": "conv2d_1041/kernel", "shape": [5, 5, 48, 64], "dtype": "float32"}, {"name": "conv2d_1042/kernel", "shape": [1, 1, 192, 64], "dtype": "float32"}, {"name": "conv2d_1043/kernel", "shape": [3, 3, 64, 96], "dtype": "float32"}, {"name": "conv2d_1044/kernel", "shape": [3, 3, 96, 96], "dtype": "float32"}, {"name": "conv2d_1045/kernel", "shape": [1, 1, 192, 32], "dtype": "float32"}, {"name": "conv2d_1046/kernel", "shape": [1, 1, 256, 64], "dtype": "float32"}, {"name": "conv2d_1047/kernel", "shape": [1, 1, 256, 48], "dtype": "float32"}, {"name": "conv2d_1048/kernel", "shape": [5, 5, 48, 64], "dtype": "float32"}, {"name": "conv2d_1049/kernel", "shape": [1, 1, 256, 64], "dtype": "float32"}, {"name": "conv2d_1050/kernel", "shape": [3, 3, 64, 96], "dtype": "float32"}, {"name": "conv2d_1051/kernel", "shape": [3, 3, 96, 96], "dtype": "float32"}, {"name": "conv2d_1052/kernel", "shape": [1, 1, 256, 64], "dtype": "float32"}, {"name": "conv2d_1053/kernel", "shape": [1, 1, 288, 64], "dtype": "float32"}, {"name": "conv2d_1054/kernel", "shape": [1, 1, 288, 48], "dtype": "float32"}, {"name": "conv2d_1055/kernel", "shape": [5, 5, 48, 64], "dtype": "float32"}, {"name": "conv2d_1056/kernel", "shape": [1, 1, 288, 64], "dtype": "float32"}, {"name": "conv2d_1057/kernel", "shape": [3, 3, 64, 96], "dtype": "float32"}, {"name": "conv2d_1058/kernel", "shape": [3, 3, 96, 96], "dtype": "float32"}, {"name": "conv2d_1059/kernel", "shape": [1, 1, 288, 64], "dtype": "float32"}, {"name": "conv2d_1060/kernel", "shape": [3, 3, 288, 384], "dtype": "float32"}, {"name": "conv2d_1061/kernel", "shape": [1, 1, 288, 64], "dtype": "float32"}, {"name": "conv2d_1062/kernel", "shape": [3, 3, 64, 96], "dtype": "float32"}, {"name": "conv2d_1063/kernel", "shape": [3, 3, 96, 96], "dtype": "float32"}, {"name": "conv2d_1064/kernel", "shape": [1, 1, 768, 192], "dtype": "float32"}, {"name": "conv2d_1065/kernel", "shape": [1, 1, 768, 128], "dtype": "float32"}, {"name": "conv2d_1066/kernel", "shape": [1, 7, 128, 128], "dtype": "float32"}, {"name": "conv2d_1067/kernel", "shape": [7, 1, 128, 192], "dtype": "float32"}, {"name": "conv2d_1068/kernel", "shape": [1, 1, 768, 128], "dtype": "float32"}, {"name": "conv2d_1069/kernel", "shape": [7, 1, 128, 128], "dtype": "float32"}, {"name": "conv2d_1070/kernel", "shape": [1, 7, 128, 128], "dtype": "float32"}, {"name": "conv2d_1071/kernel", "shape": [7, 1, 128, 128], "dtype": "float32"}, {"name": "conv2d_1072/kernel", "shape": [1, 7, 128, 192], "dtype": "float32"}, {"name": "conv2d_1073/kernel", "shape": [1, 1, 768, 192], "dtype": "float32"}, {"name": "dense_15/kernel", "shape": [37632, 15], "dtype": "float32"}, {"name": "dense_15/bias", "shape": [15], "dtype": "float32"}]}]}